{"format": "layers-model", "generatedBy": "keras v2.12.0", "convertedBy": "TensorFlow.js Converter v4.8.0", "modelTopology": {"keras_version": "2.12.0", "backend": "tensorflow", "model_config": {"class_name": "Functional", "config": {"name": "model_5", "trainable": true, "layers": [{"class_name": "InputLayer", "config": {"batch_input_shape": [null, 150, 150, 3], "dtype": "float32", "sparse": false, "ragged": false, "name": "input_6"}, "name": "input_6", "inbound_nodes": []}, {"class_name": "Conv2D", "config": {"name": "conv2d_470", "trainable": false, "dtype": "float32", "filters": 32, "kernel_size": [3, 3], "strides": [2, 2], "padding": "valid", "data_format": "channels_last", "dilation_rate": [1, 1], "groups": 1, "activation": "linear", "use_bias": false, "kernel_initializer": {"class_name": "GlorotUniform", "config": {"seed": null}}, "bias_initializer": {"class_name": "Zeros", "config": {}}, "kernel_regularizer": null, "bias_regularizer": null, "activity_regularizer": null, "kernel_constraint": null, "bias_constraint": null}, "name": "conv2d_470", "inbound_nodes": [[["input_6", 0, 0, {}]]]}, {"class_name": "BatchNormalization", "config": {"name": "batch_normalization_470", "trainable": false, "dtype": "float32", "axis": [3], "momentum": 0.99, "epsilon": 0.001, "center": true, "scale": false, "beta_initializer": {"class_name": "Zeros", "config": {}}, "gamma_initializer": {"class_name": "Ones", "config": {}}, "moving_mean_initializer": {"class_name": "Zeros", "config": {}}, "moving_variance_initializer": {"class_name": "Ones", "config": {}}, "beta_regularizer": null, "gamma_regularizer": null, "beta_constraint": null, "gamma_constraint": null}, "name": "batch_normalization_470", "inbound_nodes": [[["conv2d_470", 0, 0, {}]]]}, {"class_name": "Activation", "config": {"name": "activation_470", "trainable": false, "dtype": "float32", "activation": "relu"}, "name": "activation_470", "inbound_nodes": [[["batch_normalization_470", 0, 0, {}]]]}, {"class_name": "Conv2D", "config": {"name": "conv2d_471", "trainable": false, "dtype": "float32", "filters": 32, "kernel_size": [3, 3], "strides": [1, 1], "padding": "valid", "data_format": "channels_last", "dilation_rate": [1, 1], "groups": 1, "activation": "linear", "use_bias": false, "kernel_initializer": {"class_name": "GlorotUniform", "config": {"seed": null}}, "bias_initializer": {"class_name": "Zeros", "config": {}}, "kernel_regularizer": null, "bias_regularizer": null, "activity_regularizer": null, "kernel_constraint": null, "bias_constraint": null}, "name": "conv2d_471", "inbound_nodes": [[["activation_470", 0, 0, {}]]]}, {"class_name": "BatchNormalization", "config": {"name": "batch_normalization_471", "trainable": false, "dtype": "float32", "axis": [3], "momentum": 0.99, "epsilon": 0.001, "center": true, "scale": false, "beta_initializer": {"class_name": "Zeros", "config": {}}, "gamma_initializer": {"class_name": "Ones", "config": {}}, "moving_mean_initializer": {"class_name": "Zeros", "config": {}}, "moving_variance_initializer": {"class_name": "Ones", "config": {}}, "beta_regularizer": null, "gamma_regularizer": null, "beta_constraint": null, "gamma_constraint": null}, "name": "batch_normalization_471", "inbound_nodes": [[["conv2d_471", 0, 0, {}]]]}, {"class_name": "Activation", "config": {"name": "activation_471", "trainable": false, "dtype": "float32", "activation": "relu"}, "name": "activation_471", "inbound_nodes": [[["batch_normalization_471", 0, 0, {}]]]}, {"class_name": "Conv2D", "config": {"name": "conv2d_472", "trainable": false, "dtype": "float32", "filters": 64, "kernel_size": [3, 3], "strides": [1, 1], "padding": "same", "data_format": "channels_last", "dilation_rate": [1, 1], "groups": 1, "activation": "linear", "use_bias": false, "kernel_initializer": {"class_name": "GlorotUniform", "config": {"seed": null}}, "bias_initializer": {"class_name": "Zeros", "config": {}}, "kernel_regularizer": null, "bias_regularizer": null, "activity_regularizer": null, "kernel_constraint": null, "bias_constraint": null}, "name": "conv2d_472", "inbound_nodes": [[["activation_471", 0, 0, {}]]]}, {"class_name": "BatchNormalization", "config": {"name": "batch_normalization_472", "trainable": false, "dtype": "float32", "axis": [3], "momentum": 0.99, "epsilon": 0.001, "center": true, "scale": false, "beta_initializer": {"class_name": "Zeros", "config": {}}, "gamma_initializer": {"class_name": "Ones", "config": {}}, "moving_mean_initializer": {"class_name": "Zeros", "config": {}}, "moving_variance_initializer": {"class_name": "Ones", "config": {}}, "beta_regularizer": null, "gamma_regularizer": null, "beta_constraint": null, "gamma_constraint": null}, "name": "batch_normalization_472", "inbound_nodes": [[["conv2d_472", 0, 0, {}]]]}, {"class_name": "Activation", "config": {"name": "activation_472", "trainable": false, "dtype": "float32", "activation": "relu"}, "name": "activation_472", "inbound_nodes": [[["batch_normalization_472", 0, 0, {}]]]}, {"class_name": "MaxPooling2D", "config": {"name": "max_pooling2d_20", "trainable": false, "dtype": "float32", "pool_size": [3, 3], "padding": "valid", "strides": [2, 2], "data_format": "channels_last"}, "name": "max_pooling2d_20", "inbound_nodes": [[["activation_472", 0, 0, {}]]]}, {"class_name": "Conv2D", "config": {"name": "conv2d_473", "trainable": false, "dtype": "float32", "filters": 80, "kernel_size": [1, 1], "strides": [1, 1], "padding": "valid", "data_format": "channels_last", "dilation_rate": [1, 1], "groups": 1, "activation": "linear", "use_bias": false, "kernel_initializer": {"class_name": "GlorotUniform", "config": {"seed": null}}, "bias_initializer": {"class_name": "Zeros", "config": {}}, "kernel_regularizer": null, "bias_regularizer": null, "activity_regularizer": null, "kernel_constraint": null, "bias_constraint": null}, "name": "conv2d_473", "inbound_nodes": [[["max_pooling2d_20", 0, 0, {}]]]}, {"class_name": "BatchNormalization", "config": {"name": "batch_normalization_473", "trainable": false, "dtype": "float32", "axis": [3], "momentum": 0.99, "epsilon": 0.001, "center": true, "scale": false, "beta_initializer": {"class_name": "Zeros", "config": {}}, "gamma_initializer": {"class_name": "Ones", "config": {}}, "moving_mean_initializer": {"class_name": "Zeros", "config": {}}, "moving_variance_initializer": {"class_name": "Ones", "config": {}}, "beta_regularizer": null, "gamma_regularizer": null, "beta_constraint": null, "gamma_constraint": null}, "name": "batch_normalization_473", "inbound_nodes": [[["conv2d_473", 0, 0, {}]]]}, {"class_name": "Activation", "config": {"name": "activation_473", "trainable": false, "dtype": "float32", "activation": "relu"}, "name": "activation_473", "inbound_nodes": [[["batch_normalization_473", 0, 0, {}]]]}, {"class_name": "Conv2D", "config": {"name": "conv2d_474", "trainable": false, "dtype": "float32", "filters": 192, "kernel_size": [3, 3], "strides": [1, 1], "padding": "valid", "data_format": "channels_last", "dilation_rate": [1, 1], "groups": 1, "activation": "linear", "use_bias": false, "kernel_initializer": {"class_name": "GlorotUniform", "config": {"seed": null}}, "bias_initializer": {"class_name": "Zeros", "config": {}}, "kernel_regularizer": null, "bias_regularizer": null, "activity_regularizer": null, "kernel_constraint": null, "bias_constraint": null}, "name": "conv2d_474", "inbound_nodes": [[["activation_473", 0, 0, {}]]]}, {"class_name": "BatchNormalization", "config": {"name": "batch_normalization_474", "trainable": false, "dtype": "float32", "axis": [3], "momentum": 0.99, "epsilon": 0.001, "center": true, "scale": false, "beta_initializer": {"class_name": "Zeros", "config": {}}, "gamma_initializer": {"class_name": "Ones", "config": {}}, "moving_mean_initializer": {"class_name": "Zeros", "config": {}}, "moving_variance_initializer": {"class_name": "Ones", "config": {}}, "beta_regularizer": null, "gamma_regularizer": null, "beta_constraint": null, "gamma_constraint": null}, "name": "batch_normalization_474", "inbound_nodes": [[["conv2d_474", 0, 0, {}]]]}, {"class_name": "Activation", "config": {"name": "activation_474", "trainable": false, "dtype": "float32", "activation": "relu"}, "name": "activation_474", "inbound_nodes": [[["batch_normalization_474", 0, 0, {}]]]}, {"class_name": "MaxPooling2D", "config": {"name": "max_pooling2d_21", "trainable": false, "dtype": "float32", "pool_size": [3, 3], "padding": "valid", "strides": [2, 2], "data_format": "channels_last"}, "name": "max_pooling2d_21", "inbound_nodes": [[["activation_474", 0, 0, {}]]]}, {"class_name": "Conv2D", "config": {"name": "conv2d_478", "trainable": false, "dtype": "float32", "filters": 64, "kernel_size": [1, 1], "strides": [1, 1], "padding": "same", "data_format": "channels_last", "dilation_rate": [1, 1], "groups": 1, "activation": "linear", "use_bias": false, "kernel_initializer": {"class_name": "GlorotUniform", "config": {"seed": null}}, "bias_initializer": {"class_name": "Zeros", "config": {}}, "kernel_regularizer": null, "bias_regularizer": null, "activity_regularizer": null, "kernel_constraint": null, "bias_constraint": null}, "name": "conv2d_478", "inbound_nodes": [[["max_pooling2d_21", 0, 0, {}]]]}, {"class_name": "BatchNormalization", "config": {"name": "batch_normalization_478", "trainable": false, "dtype": "float32", "axis": [3], "momentum": 0.99, "epsilon": 0.001, "center": true, "scale": false, "beta_initializer": {"class_name": "Zeros", "config": {}}, "gamma_initializer": {"class_name": "Ones", "config": {}}, "moving_mean_initializer": {"class_name": "Zeros", "config": {}}, "moving_variance_initializer": {"class_name": "Ones", "config": {}}, "beta_regularizer": null, "gamma_regularizer": null, "beta_constraint": null, "gamma_constraint": null}, "name": "batch_normalization_478", "inbound_nodes": [[["conv2d_478", 0, 0, {}]]]}, {"class_name": "Activation", "config": {"name": "activation_478", "trainable": false, "dtype": "float32", "activation": "relu"}, "name": "activation_478", "inbound_nodes": [[["batch_normalization_478", 0, 0, {}]]]}, {"class_name": "Conv2D", "config": {"name": "conv2d_476", "trainable": false, "dtype": "float32", "filters": 48, "kernel_size": [1, 1], "strides": [1, 1], "padding": "same", "data_format": "channels_last", "dilation_rate": [1, 1], "groups": 1, "activation": "linear", "use_bias": false, "kernel_initializer": {"class_name": "GlorotUniform", "config": {"seed": null}}, "bias_initializer": {"class_name": "Zeros", "config": {}}, "kernel_regularizer": null, "bias_regularizer": null, "activity_regularizer": null, "kernel_constraint": null, "bias_constraint": null}, "name": "conv2d_476", "inbound_nodes": [[["max_pooling2d_21", 0, 0, {}]]]}, {"class_name": "Conv2D", "config": {"name": "conv2d_479", "trainable": false, "dtype": "float32", "filters": 96, "kernel_size": [3, 3], "strides": [1, 1], "padding": "same", "data_format": "channels_last", "dilation_rate": [1, 1], "groups": 1, "activation": "linear", "use_bias": false, "kernel_initializer": {"class_name": "GlorotUniform", "config": {"seed": null}}, "bias_initializer": {"class_name": "Zeros", "config": {}}, "kernel_regularizer": null, "bias_regularizer": null, "activity_regularizer": null, "kernel_constraint": null, "bias_constraint": null}, "name": "conv2d_479", "inbound_nodes": [[["activation_478", 0, 0, {}]]]}, {"class_name": "BatchNormalization", "config": {"name": "batch_normalization_476", "trainable": false, "dtype": "float32", "axis": [3], "momentum": 0.99, "epsilon": 0.001, "center": true, "scale": false, "beta_initializer": {"class_name": "Zeros", "config": {}}, "gamma_initializer": {"class_name": "Ones", "config": {}}, "moving_mean_initializer": {"class_name": "Zeros", "config": {}}, "moving_variance_initializer": {"class_name": "Ones", "config": {}}, "beta_regularizer": null, "gamma_regularizer": null, "beta_constraint": null, "gamma_constraint": null}, "name": "batch_normalization_476", "inbound_nodes": [[["conv2d_476", 0, 0, {}]]]}, {"class_name": "BatchNormalization", "config": {"name": "batch_normalization_479", "trainable": false, "dtype": "float32", "axis": [3], "momentum": 0.99, "epsilon": 0.001, "center": true, "scale": false, "beta_initializer": {"class_name": "Zeros", "config": {}}, "gamma_initializer": {"class_name": "Ones", "config": {}}, "moving_mean_initializer": {"class_name": "Zeros", "config": {}}, "moving_variance_initializer": {"class_name": "Ones", "config": {}}, "beta_regularizer": null, "gamma_regularizer": null, "beta_constraint": null, "gamma_constraint": null}, "name": "batch_normalization_479", "inbound_nodes": [[["conv2d_479", 0, 0, {}]]]}, {"class_name": "Activation", "config": {"name": "activation_476", "trainable": false, "dtype": "float32", "activation": "relu"}, "name": "activation_476", "inbound_nodes": [[["batch_normalization_476", 0, 0, {}]]]}, {"class_name": "Activation", "config": {"name": "activation_479", "trainable": false, "dtype": "float32", "activation": "relu"}, "name": "activation_479", "inbound_nodes": [[["batch_normalization_479", 0, 0, {}]]]}, {"class_name": "AveragePooling2D", "config": {"name": "average_pooling2d_45", "trainable": false, "dtype": "float32", "pool_size": [3, 3], "padding": "same", "strides": [1, 1], "data_format": "channels_last"}, "name": "average_pooling2d_45", "inbound_nodes": [[["max_pooling2d_21", 0, 0, {}]]]}, {"class_name": "Conv2D", "config": {"name": "conv2d_475", "trainable": false, "dtype": "float32", "filters": 64, "kernel_size": [1, 1], "strides": [1, 1], "padding": "same", "data_format": "channels_last", "dilation_rate": [1, 1], "groups": 1, "activation": "linear", "use_bias": false, "kernel_initializer": {"class_name": "GlorotUniform", "config": {"seed": null}}, "bias_initializer": {"class_name": "Zeros", "config": {}}, "kernel_regularizer": null, "bias_regularizer": null, "activity_regularizer": null, "kernel_constraint": null, "bias_constraint": null}, "name": "conv2d_475", "inbound_nodes": [[["max_pooling2d_21", 0, 0, {}]]]}, {"class_name": "Conv2D", "config": {"name": "conv2d_477", "trainable": false, "dtype": "float32", "filters": 64, "kernel_size": [5, 5], "strides": [1, 1], "padding": "same", "data_format": "channels_last", "dilation_rate": [1, 1], "groups": 1, "activation": "linear", "use_bias": false, "kernel_initializer": {"class_name": "GlorotUniform", "config": {"seed": null}}, "bias_initializer": {"class_name": "Zeros", "config": {}}, "kernel_regularizer": null, "bias_regularizer": null, "activity_regularizer": null, "kernel_constraint": null, "bias_constraint": null}, "name": "conv2d_477", "inbound_nodes": [[["activation_476", 0, 0, {}]]]}, {"class_name": "Conv2D", "config": {"name": "conv2d_480", "trainable": false, "dtype": "float32", "filters": 96, "kernel_size": [3, 3], "strides": [1, 1], "padding": "same", "data_format": "channels_last", "dilation_rate": [1, 1], "groups": 1, "activation": "linear", "use_bias": false, "kernel_initializer": {"class_name": "GlorotUniform", "config": {"seed": null}}, "bias_initializer": {"class_name": "Zeros", "config": {}}, "kernel_regularizer": null, "bias_regularizer": null, "activity_regularizer": null, "kernel_constraint": null, "bias_constraint": null}, "name": "conv2d_480", "inbound_nodes": [[["activation_479", 0, 0, {}]]]}, {"class_name": "Conv2D", "config": {"name": "conv2d_481", "trainable": false, "dtype": "float32", "filters": 32, "kernel_size": [1, 1], "strides": [1, 1], "padding": "same", "data_format": "channels_last", "dilation_rate": [1, 1], "groups": 1, "activation": "linear", "use_bias": false, "kernel_initializer": {"class_name": "GlorotUniform", "config": {"seed": null}}, "bias_initializer": {"class_name": "Zeros", "config": {}}, "kernel_regularizer": null, "bias_regularizer": null, "activity_regularizer": null, "kernel_constraint": null, "bias_constraint": null}, "name": "conv2d_481", "inbound_nodes": [[["average_pooling2d_45", 0, 0, {}]]]}, {"class_name": "BatchNormalization", "config": {"name": "batch_normalization_475", "trainable": false, "dtype": "float32", "axis": [3], "momentum": 0.99, "epsilon": 0.001, "center": true, "scale": false, "beta_initializer": {"class_name": "Zeros", "config": {}}, "gamma_initializer": {"class_name": "Ones", "config": {}}, "moving_mean_initializer": {"class_name": "Zeros", "config": {}}, "moving_variance_initializer": {"class_name": "Ones", "config": {}}, "beta_regularizer": null, "gamma_regularizer": null, "beta_constraint": null, "gamma_constraint": null}, "name": "batch_normalization_475", "inbound_nodes": [[["conv2d_475", 0, 0, {}]]]}, {"class_name": "BatchNormalization", "config": {"name": "batch_normalization_477", "trainable": false, "dtype": "float32", "axis": [3], "momentum": 0.99, "epsilon": 0.001, "center": true, "scale": false, "beta_initializer": {"class_name": "Zeros", "config": {}}, "gamma_initializer": {"class_name": "Ones", "config": {}}, "moving_mean_initializer": {"class_name": "Zeros", "config": {}}, "moving_variance_initializer": {"class_name": "Ones", "config": {}}, "beta_regularizer": null, "gamma_regularizer": null, "beta_constraint": null, "gamma_constraint": null}, "name": "batch_normalization_477", "inbound_nodes": [[["conv2d_477", 0, 0, {}]]]}, {"class_name": "BatchNormalization", "config": {"name": "batch_normalization_480", "trainable": false, "dtype": "float32", "axis": [3], "momentum": 0.99, "epsilon": 0.001, "center": true, "scale": false, "beta_initializer": {"class_name": "Zeros", "config": {}}, "gamma_initializer": {"class_name": "Ones", "config": {}}, "moving_mean_initializer": {"class_name": "Zeros", "config": {}}, "moving_variance_initializer": {"class_name": "Ones", "config": {}}, "beta_regularizer": null, "gamma_regularizer": null, "beta_constraint": null, "gamma_constraint": null}, "name": "batch_normalization_480", "inbound_nodes": [[["conv2d_480", 0, 0, {}]]]}, {"class_name": "BatchNormalization", "config": {"name": "batch_normalization_481", "trainable": false, "dtype": "float32", "axis": [3], "momentum": 0.99, "epsilon": 0.001, "center": true, "scale": false, "beta_initializer": {"class_name": "Zeros", "config": {}}, "gamma_initializer": {"class_name": "Ones", "config": {}}, "moving_mean_initializer": {"class_name": "Zeros", "config": {}}, "moving_variance_initializer": {"class_name": "Ones", "config": {}}, "beta_regularizer": null, "gamma_regularizer": null, "beta_constraint": null, "gamma_constraint": null}, "name": "batch_normalization_481", "inbound_nodes": [[["conv2d_481", 0, 0, {}]]]}, {"class_name": "Activation", "config": {"name": "activation_475", "trainable": false, "dtype": "float32", "activation": "relu"}, "name": "activation_475", "inbound_nodes": [[["batch_normalization_475", 0, 0, {}]]]}, {"class_name": "Activation", "config": {"name": "activation_477", "trainable": false, "dtype": "float32", "activation": "relu"}, "name": "activation_477", "inbound_nodes": [[["batch_normalization_477", 0, 0, {}]]]}, {"class_name": "Activation", "config": {"name": "activation_480", "trainable": false, "dtype": "float32", "activation": "relu"}, "name": "activation_480", "inbound_nodes": [[["batch_normalization_480", 0, 0, {}]]]}, {"class_name": "Activation", "config": {"name": "activation_481", "trainable": false, "dtype": "float32", "activation": "relu"}, "name": "activation_481", "inbound_nodes": [[["batch_normalization_481", 0, 0, {}]]]}, {"class_name": "Concatenate", "config": {"name": "mixed0", "trainable": false, "dtype": "float32", "axis": 3}, "name": "mixed0", "inbound_nodes": [[["activation_475", 0, 0, {}], ["activation_477", 0, 0, {}], ["activation_480", 0, 0, {}], ["activation_481", 0, 0, {}]]]}, {"class_name": "Conv2D", "config": {"name": "conv2d_485", "trainable": false, "dtype": "float32", "filters": 64, "kernel_size": [1, 1], "strides": [1, 1], "padding": "same", "data_format": "channels_last", "dilation_rate": [1, 1], "groups": 1, "activation": "linear", "use_bias": false, "kernel_initializer": {"class_name": "GlorotUniform", "config": {"seed": null}}, "bias_initializer": {"class_name": "Zeros", "config": {}}, "kernel_regularizer": null, "bias_regularizer": null, "activity_regularizer": null, "kernel_constraint": null, "bias_constraint": null}, "name": "conv2d_485", "inbound_nodes": [[["mixed0", 0, 0, {}]]]}, {"class_name": "BatchNormalization", "config": {"name": "batch_normalization_485", "trainable": false, "dtype": "float32", "axis": [3], "momentum": 0.99, "epsilon": 0.001, "center": true, "scale": false, "beta_initializer": {"class_name": "Zeros", "config": {}}, "gamma_initializer": {"class_name": "Ones", "config": {}}, "moving_mean_initializer": {"class_name": "Zeros", "config": {}}, "moving_variance_initializer": {"class_name": "Ones", "config": {}}, "beta_regularizer": null, "gamma_regularizer": null, "beta_constraint": null, "gamma_constraint": null}, "name": "batch_normalization_485", "inbound_nodes": [[["conv2d_485", 0, 0, {}]]]}, {"class_name": "Activation", "config": {"name": "activation_485", "trainable": false, "dtype": "float32", "activation": "relu"}, "name": "activation_485", "inbound_nodes": [[["batch_normalization_485", 0, 0, {}]]]}, {"class_name": "Conv2D", "config": {"name": "conv2d_483", "trainable": false, "dtype": "float32", "filters": 48, "kernel_size": [1, 1], "strides": [1, 1], "padding": "same", "data_format": "channels_last", "dilation_rate": [1, 1], "groups": 1, "activation": "linear", "use_bias": false, "kernel_initializer": {"class_name": "GlorotUniform", "config": {"seed": null}}, "bias_initializer": {"class_name": "Zeros", "config": {}}, "kernel_regularizer": null, "bias_regularizer": null, "activity_regularizer": null, "kernel_constraint": null, "bias_constraint": null}, "name": "conv2d_483", "inbound_nodes": [[["mixed0", 0, 0, {}]]]}, {"class_name": "Conv2D", "config": {"name": "conv2d_486", "trainable": false, "dtype": "float32", "filters": 96, "kernel_size": [3, 3], "strides": [1, 1], "padding": "same", "data_format": "channels_last", "dilation_rate": [1, 1], "groups": 1, "activation": "linear", "use_bias": false, "kernel_initializer": {"class_name": "GlorotUniform", "config": {"seed": null}}, "bias_initializer": {"class_name": "Zeros", "config": {}}, "kernel_regularizer": null, "bias_regularizer": null, "activity_regularizer": null, "kernel_constraint": null, "bias_constraint": null}, "name": "conv2d_486", "inbound_nodes": [[["activation_485", 0, 0, {}]]]}, {"class_name": "BatchNormalization", "config": {"name": "batch_normalization_483", "trainable": false, "dtype": "float32", "axis": [3], "momentum": 0.99, "epsilon": 0.001, "center": true, "scale": false, "beta_initializer": {"class_name": "Zeros", "config": {}}, "gamma_initializer": {"class_name": "Ones", "config": {}}, "moving_mean_initializer": {"class_name": "Zeros", "config": {}}, "moving_variance_initializer": {"class_name": "Ones", "config": {}}, "beta_regularizer": null, "gamma_regularizer": null, "beta_constraint": null, "gamma_constraint": null}, "name": "batch_normalization_483", "inbound_nodes": [[["conv2d_483", 0, 0, {}]]]}, {"class_name": "BatchNormalization", "config": {"name": "batch_normalization_486", "trainable": false, "dtype": "float32", "axis": [3], "momentum": 0.99, "epsilon": 0.001, "center": true, "scale": false, "beta_initializer": {"class_name": "Zeros", "config": {}}, "gamma_initializer": {"class_name": "Ones", "config": {}}, "moving_mean_initializer": {"class_name": "Zeros", "config": {}}, "moving_variance_initializer": {"class_name": "Ones", "config": {}}, "beta_regularizer": null, "gamma_regularizer": null, "beta_constraint": null, "gamma_constraint": null}, "name": "batch_normalization_486", "inbound_nodes": [[["conv2d_486", 0, 0, {}]]]}, {"class_name": "Activation", "config": {"name": "activation_483", "trainable": false, "dtype": "float32", "activation": "relu"}, "name": "activation_483", "inbound_nodes": [[["batch_normalization_483", 0, 0, {}]]]}, {"class_name": "Activation", "config": {"name": "activation_486", "trainable": false, "dtype": "float32", "activation": "relu"}, "name": "activation_486", "inbound_nodes": [[["batch_normalization_486", 0, 0, {}]]]}, {"class_name": "AveragePooling2D", "config": {"name": "average_pooling2d_46", "trainable": false, "dtype": "float32", "pool_size": [3, 3], "padding": "same", "strides": [1, 1], "data_format": "channels_last"}, "name": "average_pooling2d_46", "inbound_nodes": [[["mixed0", 0, 0, {}]]]}, {"class_name": "Conv2D", "config": {"name": "conv2d_482", "trainable": false, "dtype": "float32", "filters": 64, "kernel_size": [1, 1], "strides": [1, 1], "padding": "same", "data_format": "channels_last", "dilation_rate": [1, 1], "groups": 1, "activation": "linear", "use_bias": false, "kernel_initializer": {"class_name": "GlorotUniform", "config": {"seed": null}}, "bias_initializer": {"class_name": "Zeros", "config": {}}, "kernel_regularizer": null, "bias_regularizer": null, "activity_regularizer": null, "kernel_constraint": null, "bias_constraint": null}, "name": "conv2d_482", "inbound_nodes": [[["mixed0", 0, 0, {}]]]}, {"class_name": "Conv2D", "config": {"name": "conv2d_484", "trainable": false, "dtype": "float32", "filters": 64, "kernel_size": [5, 5], "strides": [1, 1], "padding": "same", "data_format": "channels_last", "dilation_rate": [1, 1], "groups": 1, "activation": "linear", "use_bias": false, "kernel_initializer": {"class_name": "GlorotUniform", "config": {"seed": null}}, "bias_initializer": {"class_name": "Zeros", "config": {}}, "kernel_regularizer": null, "bias_regularizer": null, "activity_regularizer": null, "kernel_constraint": null, "bias_constraint": null}, "name": "conv2d_484", "inbound_nodes": [[["activation_483", 0, 0, {}]]]}, {"class_name": "Conv2D", "config": {"name": "conv2d_487", "trainable": false, "dtype": "float32", "filters": 96, "kernel_size": [3, 3], "strides": [1, 1], "padding": "same", "data_format": "channels_last", "dilation_rate": [1, 1], "groups": 1, "activation": "linear", "use_bias": false, "kernel_initializer": {"class_name": "GlorotUniform", "config": {"seed": null}}, "bias_initializer": {"class_name": "Zeros", "config": {}}, "kernel_regularizer": null, "bias_regularizer": null, "activity_regularizer": null, "kernel_constraint": null, "bias_constraint": null}, "name": "conv2d_487", "inbound_nodes": [[["activation_486", 0, 0, {}]]]}, {"class_name": "Conv2D", "config": {"name": "conv2d_488", "trainable": false, "dtype": "float32", "filters": 64, "kernel_size": [1, 1], "strides": [1, 1], "padding": "same", "data_format": "channels_last", "dilation_rate": [1, 1], "groups": 1, "activation": "linear", "use_bias": false, "kernel_initializer": {"class_name": "GlorotUniform", "config": {"seed": null}}, "bias_initializer": {"class_name": "Zeros", "config": {}}, "kernel_regularizer": null, "bias_regularizer": null, "activity_regularizer": null, "kernel_constraint": null, "bias_constraint": null}, "name": "conv2d_488", "inbound_nodes": [[["average_pooling2d_46", 0, 0, {}]]]}, {"class_name": "BatchNormalization", "config": {"name": "batch_normalization_482", "trainable": false, "dtype": "float32", "axis": [3], "momentum": 0.99, "epsilon": 0.001, "center": true, "scale": false, "beta_initializer": {"class_name": "Zeros", "config": {}}, "gamma_initializer": {"class_name": "Ones", "config": {}}, "moving_mean_initializer": {"class_name": "Zeros", "config": {}}, "moving_variance_initializer": {"class_name": "Ones", "config": {}}, "beta_regularizer": null, "gamma_regularizer": null, "beta_constraint": null, "gamma_constraint": null}, "name": "batch_normalization_482", "inbound_nodes": [[["conv2d_482", 0, 0, {}]]]}, {"class_name": "BatchNormalization", "config": {"name": "batch_normalization_484", "trainable": false, "dtype": "float32", "axis": [3], "momentum": 0.99, "epsilon": 0.001, "center": true, "scale": false, "beta_initializer": {"class_name": "Zeros", "config": {}}, "gamma_initializer": {"class_name": "Ones", "config": {}}, "moving_mean_initializer": {"class_name": "Zeros", "config": {}}, "moving_variance_initializer": {"class_name": "Ones", "config": {}}, "beta_regularizer": null, "gamma_regularizer": null, "beta_constraint": null, "gamma_constraint": null}, "name": "batch_normalization_484", "inbound_nodes": [[["conv2d_484", 0, 0, {}]]]}, {"class_name": "BatchNormalization", "config": {"name": "batch_normalization_487", "trainable": false, "dtype": "float32", "axis": [3], "momentum": 0.99, "epsilon": 0.001, "center": true, "scale": false, "beta_initializer": {"class_name": "Zeros", "config": {}}, "gamma_initializer": {"class_name": "Ones", "config": {}}, "moving_mean_initializer": {"class_name": "Zeros", "config": {}}, "moving_variance_initializer": {"class_name": "Ones", "config": {}}, "beta_regularizer": null, "gamma_regularizer": null, "beta_constraint": null, "gamma_constraint": null}, "name": "batch_normalization_487", "inbound_nodes": [[["conv2d_487", 0, 0, {}]]]}, {"class_name": "BatchNormalization", "config": {"name": "batch_normalization_488", "trainable": false, "dtype": "float32", "axis": [3], "momentum": 0.99, "epsilon": 0.001, "center": true, "scale": false, "beta_initializer": {"class_name": "Zeros", "config": {}}, "gamma_initializer": {"class_name": "Ones", "config": {}}, "moving_mean_initializer": {"class_name": "Zeros", "config": {}}, "moving_variance_initializer": {"class_name": "Ones", "config": {}}, "beta_regularizer": null, "gamma_regularizer": null, "beta_constraint": null, "gamma_constraint": null}, "name": "batch_normalization_488", "inbound_nodes": [[["conv2d_488", 0, 0, {}]]]}, {"class_name": "Activation", "config": {"name": "activation_482", "trainable": false, "dtype": "float32", "activation": "relu"}, "name": "activation_482", "inbound_nodes": [[["batch_normalization_482", 0, 0, {}]]]}, {"class_name": "Activation", "config": {"name": "activation_484", "trainable": false, "dtype": "float32", "activation": "relu"}, "name": "activation_484", "inbound_nodes": [[["batch_normalization_484", 0, 0, {}]]]}, {"class_name": "Activation", "config": {"name": "activation_487", "trainable": false, "dtype": "float32", "activation": "relu"}, "name": "activation_487", "inbound_nodes": [[["batch_normalization_487", 0, 0, {}]]]}, {"class_name": "Activation", "config": {"name": "activation_488", "trainable": false, "dtype": "float32", "activation": "relu"}, "name": "activation_488", "inbound_nodes": [[["batch_normalization_488", 0, 0, {}]]]}, {"class_name": "Concatenate", "config": {"name": "mixed1", "trainable": false, "dtype": "float32", "axis": 3}, "name": "mixed1", "inbound_nodes": [[["activation_482", 0, 0, {}], ["activation_484", 0, 0, {}], ["activation_487", 0, 0, {}], ["activation_488", 0, 0, {}]]]}, {"class_name": "Conv2D", "config": {"name": "conv2d_492", "trainable": false, "dtype": "float32", "filters": 64, "kernel_size": [1, 1], "strides": [1, 1], "padding": "same", "data_format": "channels_last", "dilation_rate": [1, 1], "groups": 1, "activation": "linear", "use_bias": false, "kernel_initializer": {"class_name": "GlorotUniform", "config": {"seed": null}}, "bias_initializer": {"class_name": "Zeros", "config": {}}, "kernel_regularizer": null, "bias_regularizer": null, "activity_regularizer": null, "kernel_constraint": null, "bias_constraint": null}, "name": "conv2d_492", "inbound_nodes": [[["mixed1", 0, 0, {}]]]}, {"class_name": "BatchNormalization", "config": {"name": "batch_normalization_492", "trainable": false, "dtype": "float32", "axis": [3], "momentum": 0.99, "epsilon": 0.001, "center": true, "scale": false, "beta_initializer": {"class_name": "Zeros", "config": {}}, "gamma_initializer": {"class_name": "Ones", "config": {}}, "moving_mean_initializer": {"class_name": "Zeros", "config": {}}, "moving_variance_initializer": {"class_name": "Ones", "config": {}}, "beta_regularizer": null, "gamma_regularizer": null, "beta_constraint": null, "gamma_constraint": null}, "name": "batch_normalization_492", "inbound_nodes": [[["conv2d_492", 0, 0, {}]]]}, {"class_name": "Activation", "config": {"name": "activation_492", "trainable": false, "dtype": "float32", "activation": "relu"}, "name": "activation_492", "inbound_nodes": [[["batch_normalization_492", 0, 0, {}]]]}, {"class_name": "Conv2D", "config": {"name": "conv2d_490", "trainable": false, "dtype": "float32", "filters": 48, "kernel_size": [1, 1], "strides": [1, 1], "padding": "same", "data_format": "channels_last", "dilation_rate": [1, 1], "groups": 1, "activation": "linear", "use_bias": false, "kernel_initializer": {"class_name": "GlorotUniform", "config": {"seed": null}}, "bias_initializer": {"class_name": "Zeros", "config": {}}, "kernel_regularizer": null, "bias_regularizer": null, "activity_regularizer": null, "kernel_constraint": null, "bias_constraint": null}, "name": "conv2d_490", "inbound_nodes": [[["mixed1", 0, 0, {}]]]}, {"class_name": "Conv2D", "config": {"name": "conv2d_493", "trainable": false, "dtype": "float32", "filters": 96, "kernel_size": [3, 3], "strides": [1, 1], "padding": "same", "data_format": "channels_last", "dilation_rate": [1, 1], "groups": 1, "activation": "linear", "use_bias": false, "kernel_initializer": {"class_name": "GlorotUniform", "config": {"seed": null}}, "bias_initializer": {"class_name": "Zeros", "config": {}}, "kernel_regularizer": null, "bias_regularizer": null, "activity_regularizer": null, "kernel_constraint": null, "bias_constraint": null}, "name": "conv2d_493", "inbound_nodes": [[["activation_492", 0, 0, {}]]]}, {"class_name": "BatchNormalization", "config": {"name": "batch_normalization_490", "trainable": false, "dtype": "float32", "axis": [3], "momentum": 0.99, "epsilon": 0.001, "center": true, "scale": false, "beta_initializer": {"class_name": "Zeros", "config": {}}, "gamma_initializer": {"class_name": "Ones", "config": {}}, "moving_mean_initializer": {"class_name": "Zeros", "config": {}}, "moving_variance_initializer": {"class_name": "Ones", "config": {}}, "beta_regularizer": null, "gamma_regularizer": null, "beta_constraint": null, "gamma_constraint": null}, "name": "batch_normalization_490", "inbound_nodes": [[["conv2d_490", 0, 0, {}]]]}, {"class_name": "BatchNormalization", "config": {"name": "batch_normalization_493", "trainable": false, "dtype": "float32", "axis": [3], "momentum": 0.99, "epsilon": 0.001, "center": true, "scale": false, "beta_initializer": {"class_name": "Zeros", "config": {}}, "gamma_initializer": {"class_name": "Ones", "config": {}}, "moving_mean_initializer": {"class_name": "Zeros", "config": {}}, "moving_variance_initializer": {"class_name": "Ones", "config": {}}, "beta_regularizer": null, "gamma_regularizer": null, "beta_constraint": null, "gamma_constraint": null}, "name": "batch_normalization_493", "inbound_nodes": [[["conv2d_493", 0, 0, {}]]]}, {"class_name": "Activation", "config": {"name": "activation_490", "trainable": false, "dtype": "float32", "activation": "relu"}, "name": "activation_490", "inbound_nodes": [[["batch_normalization_490", 0, 0, {}]]]}, {"class_name": "Activation", "config": {"name": "activation_493", "trainable": false, "dtype": "float32", "activation": "relu"}, "name": "activation_493", "inbound_nodes": [[["batch_normalization_493", 0, 0, {}]]]}, {"class_name": "AveragePooling2D", "config": {"name": "average_pooling2d_47", "trainable": false, "dtype": "float32", "pool_size": [3, 3], "padding": "same", "strides": [1, 1], "data_format": "channels_last"}, "name": "average_pooling2d_47", "inbound_nodes": [[["mixed1", 0, 0, {}]]]}, {"class_name": "Conv2D", "config": {"name": "conv2d_489", "trainable": false, "dtype": "float32", "filters": 64, "kernel_size": [1, 1], "strides": [1, 1], "padding": "same", "data_format": "channels_last", "dilation_rate": [1, 1], "groups": 1, "activation": "linear", "use_bias": false, "kernel_initializer": {"class_name": "GlorotUniform", "config": {"seed": null}}, "bias_initializer": {"class_name": "Zeros", "config": {}}, "kernel_regularizer": null, "bias_regularizer": null, "activity_regularizer": null, "kernel_constraint": null, "bias_constraint": null}, "name": "conv2d_489", "inbound_nodes": [[["mixed1", 0, 0, {}]]]}, {"class_name": "Conv2D", "config": {"name": "conv2d_491", "trainable": false, "dtype": "float32", "filters": 64, "kernel_size": [5, 5], "strides": [1, 1], "padding": "same", "data_format": "channels_last", "dilation_rate": [1, 1], "groups": 1, "activation": "linear", "use_bias": false, "kernel_initializer": {"class_name": "GlorotUniform", "config": {"seed": null}}, "bias_initializer": {"class_name": "Zeros", "config": {}}, "kernel_regularizer": null, "bias_regularizer": null, "activity_regularizer": null, "kernel_constraint": null, "bias_constraint": null}, "name": "conv2d_491", "inbound_nodes": [[["activation_490", 0, 0, {}]]]}, {"class_name": "Conv2D", "config": {"name": "conv2d_494", "trainable": false, "dtype": "float32", "filters": 96, "kernel_size": [3, 3], "strides": [1, 1], "padding": "same", "data_format": "channels_last", "dilation_rate": [1, 1], "groups": 1, "activation": "linear", "use_bias": false, "kernel_initializer": {"class_name": "GlorotUniform", "config": {"seed": null}}, "bias_initializer": {"class_name": "Zeros", "config": {}}, "kernel_regularizer": null, "bias_regularizer": null, "activity_regularizer": null, "kernel_constraint": null, "bias_constraint": null}, "name": "conv2d_494", "inbound_nodes": [[["activation_493", 0, 0, {}]]]}, {"class_name": "Conv2D", "config": {"name": "conv2d_495", "trainable": false, "dtype": "float32", "filters": 64, "kernel_size": [1, 1], "strides": [1, 1], "padding": "same", "data_format": "channels_last", "dilation_rate": [1, 1], "groups": 1, "activation": "linear", "use_bias": false, "kernel_initializer": {"class_name": "GlorotUniform", "config": {"seed": null}}, "bias_initializer": {"class_name": "Zeros", "config": {}}, "kernel_regularizer": null, "bias_regularizer": null, "activity_regularizer": null, "kernel_constraint": null, "bias_constraint": null}, "name": "conv2d_495", "inbound_nodes": [[["average_pooling2d_47", 0, 0, {}]]]}, {"class_name": "BatchNormalization", "config": {"name": "batch_normalization_489", "trainable": false, "dtype": "float32", "axis": [3], "momentum": 0.99, "epsilon": 0.001, "center": true, "scale": false, "beta_initializer": {"class_name": "Zeros", "config": {}}, "gamma_initializer": {"class_name": "Ones", "config": {}}, "moving_mean_initializer": {"class_name": "Zeros", "config": {}}, "moving_variance_initializer": {"class_name": "Ones", "config": {}}, "beta_regularizer": null, "gamma_regularizer": null, "beta_constraint": null, "gamma_constraint": null}, "name": "batch_normalization_489", "inbound_nodes": [[["conv2d_489", 0, 0, {}]]]}, {"class_name": "BatchNormalization", "config": {"name": "batch_normalization_491", "trainable": false, "dtype": "float32", "axis": [3], "momentum": 0.99, "epsilon": 0.001, "center": true, "scale": false, "beta_initializer": {"class_name": "Zeros", "config": {}}, "gamma_initializer": {"class_name": "Ones", "config": {}}, "moving_mean_initializer": {"class_name": "Zeros", "config": {}}, "moving_variance_initializer": {"class_name": "Ones", "config": {}}, "beta_regularizer": null, "gamma_regularizer": null, "beta_constraint": null, "gamma_constraint": null}, "name": "batch_normalization_491", "inbound_nodes": [[["conv2d_491", 0, 0, {}]]]}, {"class_name": "BatchNormalization", "config": {"name": "batch_normalization_494", "trainable": false, "dtype": "float32", "axis": [3], "momentum": 0.99, "epsilon": 0.001, "center": true, "scale": false, "beta_initializer": {"class_name": "Zeros", "config": {}}, "gamma_initializer": {"class_name": "Ones", "config": {}}, "moving_mean_initializer": {"class_name": "Zeros", "config": {}}, "moving_variance_initializer": {"class_name": "Ones", "config": {}}, "beta_regularizer": null, "gamma_regularizer": null, "beta_constraint": null, "gamma_constraint": null}, "name": "batch_normalization_494", "inbound_nodes": [[["conv2d_494", 0, 0, {}]]]}, {"class_name": "BatchNormalization", "config": {"name": "batch_normalization_495", "trainable": false, "dtype": "float32", "axis": [3], "momentum": 0.99, "epsilon": 0.001, "center": true, "scale": false, "beta_initializer": {"class_name": "Zeros", "config": {}}, "gamma_initializer": {"class_name": "Ones", "config": {}}, "moving_mean_initializer": {"class_name": "Zeros", "config": {}}, "moving_variance_initializer": {"class_name": "Ones", "config": {}}, "beta_regularizer": null, "gamma_regularizer": null, "beta_constraint": null, "gamma_constraint": null}, "name": "batch_normalization_495", "inbound_nodes": [[["conv2d_495", 0, 0, {}]]]}, {"class_name": "Activation", "config": {"name": "activation_489", "trainable": false, "dtype": "float32", "activation": "relu"}, "name": "activation_489", "inbound_nodes": [[["batch_normalization_489", 0, 0, {}]]]}, {"class_name": "Activation", "config": {"name": "activation_491", "trainable": false, "dtype": "float32", "activation": "relu"}, "name": "activation_491", "inbound_nodes": [[["batch_normalization_491", 0, 0, {}]]]}, {"class_name": "Activation", "config": {"name": "activation_494", "trainable": false, "dtype": "float32", "activation": "relu"}, "name": "activation_494", "inbound_nodes": [[["batch_normalization_494", 0, 0, {}]]]}, {"class_name": "Activation", "config": {"name": "activation_495", "trainable": false, "dtype": "float32", "activation": "relu"}, "name": "activation_495", "inbound_nodes": [[["batch_normalization_495", 0, 0, {}]]]}, {"class_name": "Concatenate", "config": {"name": "mixed2", "trainable": false, "dtype": "float32", "axis": 3}, "name": "mixed2", "inbound_nodes": [[["activation_489", 0, 0, {}], ["activation_491", 0, 0, {}], ["activation_494", 0, 0, {}], ["activation_495", 0, 0, {}]]]}, {"class_name": "Conv2D", "config": {"name": "conv2d_497", "trainable": false, "dtype": "float32", "filters": 64, "kernel_size": [1, 1], "strides": [1, 1], "padding": "same", "data_format": "channels_last", "dilation_rate": [1, 1], "groups": 1, "activation": "linear", "use_bias": false, "kernel_initializer": {"class_name": "GlorotUniform", "config": {"seed": null}}, "bias_initializer": {"class_name": "Zeros", "config": {}}, "kernel_regularizer": null, "bias_regularizer": null, "activity_regularizer": null, "kernel_constraint": null, "bias_constraint": null}, "name": "conv2d_497", "inbound_nodes": [[["mixed2", 0, 0, {}]]]}, {"class_name": "BatchNormalization", "config": {"name": "batch_normalization_497", "trainable": false, "dtype": "float32", "axis": [3], "momentum": 0.99, "epsilon": 0.001, "center": true, "scale": false, "beta_initializer": {"class_name": "Zeros", "config": {}}, "gamma_initializer": {"class_name": "Ones", "config": {}}, "moving_mean_initializer": {"class_name": "Zeros", "config": {}}, "moving_variance_initializer": {"class_name": "Ones", "config": {}}, "beta_regularizer": null, "gamma_regularizer": null, "beta_constraint": null, "gamma_constraint": null}, "name": "batch_normalization_497", "inbound_nodes": [[["conv2d_497", 0, 0, {}]]]}, {"class_name": "Activation", "config": {"name": "activation_497", "trainable": false, "dtype": "float32", "activation": "relu"}, "name": "activation_497", "inbound_nodes": [[["batch_normalization_497", 0, 0, {}]]]}, {"class_name": "Conv2D", "config": {"name": "conv2d_498", "trainable": false, "dtype": "float32", "filters": 96, "kernel_size": [3, 3], "strides": [1, 1], "padding": "same", "data_format": "channels_last", "dilation_rate": [1, 1], "groups": 1, "activation": "linear", "use_bias": false, "kernel_initializer": {"class_name": "GlorotUniform", "config": {"seed": null}}, "bias_initializer": {"class_name": "Zeros", "config": {}}, "kernel_regularizer": null, "bias_regularizer": null, "activity_regularizer": null, "kernel_constraint": null, "bias_constraint": null}, "name": "conv2d_498", "inbound_nodes": [[["activation_497", 0, 0, {}]]]}, {"class_name": "BatchNormalization", "config": {"name": "batch_normalization_498", "trainable": false, "dtype": "float32", "axis": [3], "momentum": 0.99, "epsilon": 0.001, "center": true, "scale": false, "beta_initializer": {"class_name": "Zeros", "config": {}}, "gamma_initializer": {"class_name": "Ones", "config": {}}, "moving_mean_initializer": {"class_name": "Zeros", "config": {}}, "moving_variance_initializer": {"class_name": "Ones", "config": {}}, "beta_regularizer": null, "gamma_regularizer": null, "beta_constraint": null, "gamma_constraint": null}, "name": "batch_normalization_498", "inbound_nodes": [[["conv2d_498", 0, 0, {}]]]}, {"class_name": "Activation", "config": {"name": "activation_498", "trainable": false, "dtype": "float32", "activation": "relu"}, "name": "activation_498", "inbound_nodes": [[["batch_normalization_498", 0, 0, {}]]]}, {"class_name": "Conv2D", "config": {"name": "conv2d_496", "trainable": false, "dtype": "float32", "filters": 384, "kernel_size": [3, 3], "strides": [2, 2], "padding": "valid", "data_format": "channels_last", "dilation_rate": [1, 1], "groups": 1, "activation": "linear", "use_bias": false, "kernel_initializer": {"class_name": "GlorotUniform", "config": {"seed": null}}, "bias_initializer": {"class_name": "Zeros", "config": {}}, "kernel_regularizer": null, "bias_regularizer": null, "activity_regularizer": null, "kernel_constraint": null, "bias_constraint": null}, "name": "conv2d_496", "inbound_nodes": [[["mixed2", 0, 0, {}]]]}, {"class_name": "Conv2D", "config": {"name": "conv2d_499", "trainable": false, "dtype": "float32", "filters": 96, "kernel_size": [3, 3], "strides": [2, 2], "padding": "valid", "data_format": "channels_last", "dilation_rate": [1, 1], "groups": 1, "activation": "linear", "use_bias": false, "kernel_initializer": {"class_name": "GlorotUniform", "config": {"seed": null}}, "bias_initializer": {"class_name": "Zeros", "config": {}}, "kernel_regularizer": null, "bias_regularizer": null, "activity_regularizer": null, "kernel_constraint": null, "bias_constraint": null}, "name": "conv2d_499", "inbound_nodes": [[["activation_498", 0, 0, {}]]]}, {"class_name": "BatchNormalization", "config": {"name": "batch_normalization_496", "trainable": false, "dtype": "float32", "axis": [3], "momentum": 0.99, "epsilon": 0.001, "center": true, "scale": false, "beta_initializer": {"class_name": "Zeros", "config": {}}, "gamma_initializer": {"class_name": "Ones", "config": {}}, "moving_mean_initializer": {"class_name": "Zeros", "config": {}}, "moving_variance_initializer": {"class_name": "Ones", "config": {}}, "beta_regularizer": null, "gamma_regularizer": null, "beta_constraint": null, "gamma_constraint": null}, "name": "batch_normalization_496", "inbound_nodes": [[["conv2d_496", 0, 0, {}]]]}, {"class_name": "BatchNormalization", "config": {"name": "batch_normalization_499", "trainable": false, "dtype": "float32", "axis": [3], "momentum": 0.99, "epsilon": 0.001, "center": true, "scale": false, "beta_initializer": {"class_name": "Zeros", "config": {}}, "gamma_initializer": {"class_name": "Ones", "config": {}}, "moving_mean_initializer": {"class_name": "Zeros", "config": {}}, "moving_variance_initializer": {"class_name": "Ones", "config": {}}, "beta_regularizer": null, "gamma_regularizer": null, "beta_constraint": null, "gamma_constraint": null}, "name": "batch_normalization_499", "inbound_nodes": [[["conv2d_499", 0, 0, {}]]]}, {"class_name": "Activation", "config": {"name": "activation_496", "trainable": false, "dtype": "float32", "activation": "relu"}, "name": "activation_496", "inbound_nodes": [[["batch_normalization_496", 0, 0, {}]]]}, {"class_name": "Activation", "config": {"name": "activation_499", "trainable": false, "dtype": "float32", "activation": "relu"}, "name": "activation_499", "inbound_nodes": [[["batch_normalization_499", 0, 0, {}]]]}, {"class_name": "MaxPooling2D", "config": {"name": "max_pooling2d_22", "trainable": false, "dtype": "float32", "pool_size": [3, 3], "padding": "valid", "strides": [2, 2], "data_format": "channels_last"}, "name": "max_pooling2d_22", "inbound_nodes": [[["mixed2", 0, 0, {}]]]}, {"class_name": "Concatenate", "config": {"name": "mixed3", "trainable": false, "dtype": "float32", "axis": 3}, "name": "mixed3", "inbound_nodes": [[["activation_496", 0, 0, {}], ["activation_499", 0, 0, {}], ["max_pooling2d_22", 0, 0, {}]]]}, {"class_name": "Conv2D", "config": {"name": "conv2d_504", "trainable": false, "dtype": "float32", "filters": 128, "kernel_size": [1, 1], "strides": [1, 1], "padding": "same", "data_format": "channels_last", "dilation_rate": [1, 1], "groups": 1, "activation": "linear", "use_bias": false, "kernel_initializer": {"class_name": "GlorotUniform", "config": {"seed": null}}, "bias_initializer": {"class_name": "Zeros", "config": {}}, "kernel_regularizer": null, "bias_regularizer": null, "activity_regularizer": null, "kernel_constraint": null, "bias_constraint": null}, "name": "conv2d_504", "inbound_nodes": [[["mixed3", 0, 0, {}]]]}, {"class_name": "BatchNormalization", "config": {"name": "batch_normalization_504", "trainable": false, "dtype": "float32", "axis": [3], "momentum": 0.99, "epsilon": 0.001, "center": true, "scale": false, "beta_initializer": {"class_name": "Zeros", "config": {}}, "gamma_initializer": {"class_name": "Ones", "config": {}}, "moving_mean_initializer": {"class_name": "Zeros", "config": {}}, "moving_variance_initializer": {"class_name": "Ones", "config": {}}, "beta_regularizer": null, "gamma_regularizer": null, "beta_constraint": null, "gamma_constraint": null}, "name": "batch_normalization_504", "inbound_nodes": [[["conv2d_504", 0, 0, {}]]]}, {"class_name": "Activation", "config": {"name": "activation_504", "trainable": false, "dtype": "float32", "activation": "relu"}, "name": "activation_504", "inbound_nodes": [[["batch_normalization_504", 0, 0, {}]]]}, {"class_name": "Conv2D", "config": {"name": "conv2d_505", "trainable": false, "dtype": "float32", "filters": 128, "kernel_size": [7, 1], "strides": [1, 1], "padding": "same", "data_format": "channels_last", "dilation_rate": [1, 1], "groups": 1, "activation": "linear", "use_bias": false, "kernel_initializer": {"class_name": "GlorotUniform", "config": {"seed": null}}, "bias_initializer": {"class_name": "Zeros", "config": {}}, "kernel_regularizer": null, "bias_regularizer": null, "activity_regularizer": null, "kernel_constraint": null, "bias_constraint": null}, "name": "conv2d_505", "inbound_nodes": [[["activation_504", 0, 0, {}]]]}, {"class_name": "BatchNormalization", "config": {"name": "batch_normalization_505", "trainable": false, "dtype": "float32", "axis": [3], "momentum": 0.99, "epsilon": 0.001, "center": true, "scale": false, "beta_initializer": {"class_name": "Zeros", "config": {}}, "gamma_initializer": {"class_name": "Ones", "config": {}}, "moving_mean_initializer": {"class_name": "Zeros", "config": {}}, "moving_variance_initializer": {"class_name": "Ones", "config": {}}, "beta_regularizer": null, "gamma_regularizer": null, "beta_constraint": null, "gamma_constraint": null}, "name": "batch_normalization_505", "inbound_nodes": [[["conv2d_505", 0, 0, {}]]]}, {"class_name": "Activation", "config": {"name": "activation_505", "trainable": false, "dtype": "float32", "activation": "relu"}, "name": "activation_505", "inbound_nodes": [[["batch_normalization_505", 0, 0, {}]]]}, {"class_name": "Conv2D", "config": {"name": "conv2d_501", "trainable": false, "dtype": "float32", "filters": 128, "kernel_size": [1, 1], "strides": [1, 1], "padding": "same", "data_format": "channels_last", "dilation_rate": [1, 1], "groups": 1, "activation": "linear", "use_bias": false, "kernel_initializer": {"class_name": "GlorotUniform", "config": {"seed": null}}, "bias_initializer": {"class_name": "Zeros", "config": {}}, "kernel_regularizer": null, "bias_regularizer": null, "activity_regularizer": null, "kernel_constraint": null, "bias_constraint": null}, "name": "conv2d_501", "inbound_nodes": [[["mixed3", 0, 0, {}]]]}, {"class_name": "Conv2D", "config": {"name": "conv2d_506", "trainable": false, "dtype": "float32", "filters": 128, "kernel_size": [1, 7], "strides": [1, 1], "padding": "same", "data_format": "channels_last", "dilation_rate": [1, 1], "groups": 1, "activation": "linear", "use_bias": false, "kernel_initializer": {"class_name": "GlorotUniform", "config": {"seed": null}}, "bias_initializer": {"class_name": "Zeros", "config": {}}, "kernel_regularizer": null, "bias_regularizer": null, "activity_regularizer": null, "kernel_constraint": null, "bias_constraint": null}, "name": "conv2d_506", "inbound_nodes": [[["activation_505", 0, 0, {}]]]}, {"class_name": "BatchNormalization", "config": {"name": "batch_normalization_501", "trainable": false, "dtype": "float32", "axis": [3], "momentum": 0.99, "epsilon": 0.001, "center": true, "scale": false, "beta_initializer": {"class_name": "Zeros", "config": {}}, "gamma_initializer": {"class_name": "Ones", "config": {}}, "moving_mean_initializer": {"class_name": "Zeros", "config": {}}, "moving_variance_initializer": {"class_name": "Ones", "config": {}}, "beta_regularizer": null, "gamma_regularizer": null, "beta_constraint": null, "gamma_constraint": null}, "name": "batch_normalization_501", "inbound_nodes": [[["conv2d_501", 0, 0, {}]]]}, {"class_name": "BatchNormalization", "config": {"name": "batch_normalization_506", "trainable": false, "dtype": "float32", "axis": [3], "momentum": 0.99, "epsilon": 0.001, "center": true, "scale": false, "beta_initializer": {"class_name": "Zeros", "config": {}}, "gamma_initializer": {"class_name": "Ones", "config": {}}, "moving_mean_initializer": {"class_name": "Zeros", "config": {}}, "moving_variance_initializer": {"class_name": "Ones", "config": {}}, "beta_regularizer": null, "gamma_regularizer": null, "beta_constraint": null, "gamma_constraint": null}, "name": "batch_normalization_506", "inbound_nodes": [[["conv2d_506", 0, 0, {}]]]}, {"class_name": "Activation", "config": {"name": "activation_501", "trainable": false, "dtype": "float32", "activation": "relu"}, "name": "activation_501", "inbound_nodes": [[["batch_normalization_501", 0, 0, {}]]]}, {"class_name": "Activation", "config": {"name": "activation_506", "trainable": false, "dtype": "float32", "activation": "relu"}, "name": "activation_506", "inbound_nodes": [[["batch_normalization_506", 0, 0, {}]]]}, {"class_name": "Conv2D", "config": {"name": "conv2d_502", "trainable": false, "dtype": "float32", "filters": 128, "kernel_size": [1, 7], "strides": [1, 1], "padding": "same", "data_format": "channels_last", "dilation_rate": [1, 1], "groups": 1, "activation": "linear", "use_bias": false, "kernel_initializer": {"class_name": "GlorotUniform", "config": {"seed": null}}, "bias_initializer": {"class_name": "Zeros", "config": {}}, "kernel_regularizer": null, "bias_regularizer": null, "activity_regularizer": null, "kernel_constraint": null, "bias_constraint": null}, "name": "conv2d_502", "inbound_nodes": [[["activation_501", 0, 0, {}]]]}, {"class_name": "Conv2D", "config": {"name": "conv2d_507", "trainable": false, "dtype": "float32", "filters": 128, "kernel_size": [7, 1], "strides": [1, 1], "padding": "same", "data_format": "channels_last", "dilation_rate": [1, 1], "groups": 1, "activation": "linear", "use_bias": false, "kernel_initializer": {"class_name": "GlorotUniform", "config": {"seed": null}}, "bias_initializer": {"class_name": "Zeros", "config": {}}, "kernel_regularizer": null, "bias_regularizer": null, "activity_regularizer": null, "kernel_constraint": null, "bias_constraint": null}, "name": "conv2d_507", "inbound_nodes": [[["activation_506", 0, 0, {}]]]}, {"class_name": "BatchNormalization", "config": {"name": "batch_normalization_502", "trainable": false, "dtype": "float32", "axis": [3], "momentum": 0.99, "epsilon": 0.001, "center": true, "scale": false, "beta_initializer": {"class_name": "Zeros", "config": {}}, "gamma_initializer": {"class_name": "Ones", "config": {}}, "moving_mean_initializer": {"class_name": "Zeros", "config": {}}, "moving_variance_initializer": {"class_name": "Ones", "config": {}}, "beta_regularizer": null, "gamma_regularizer": null, "beta_constraint": null, "gamma_constraint": null}, "name": "batch_normalization_502", "inbound_nodes": [[["conv2d_502", 0, 0, {}]]]}, {"class_name": "BatchNormalization", "config": {"name": "batch_normalization_507", "trainable": false, "dtype": "float32", "axis": [3], "momentum": 0.99, "epsilon": 0.001, "center": true, "scale": false, "beta_initializer": {"class_name": "Zeros", "config": {}}, "gamma_initializer": {"class_name": "Ones", "config": {}}, "moving_mean_initializer": {"class_name": "Zeros", "config": {}}, "moving_variance_initializer": {"class_name": "Ones", "config": {}}, "beta_regularizer": null, "gamma_regularizer": null, "beta_constraint": null, "gamma_constraint": null}, "name": "batch_normalization_507", "inbound_nodes": [[["conv2d_507", 0, 0, {}]]]}, {"class_name": "Activation", "config": {"name": "activation_502", "trainable": false, "dtype": "float32", "activation": "relu"}, "name": "activation_502", "inbound_nodes": [[["batch_normalization_502", 0, 0, {}]]]}, {"class_name": "Activation", "config": {"name": "activation_507", "trainable": false, "dtype": "float32", "activation": "relu"}, "name": "activation_507", "inbound_nodes": [[["batch_normalization_507", 0, 0, {}]]]}, {"class_name": "AveragePooling2D", "config": {"name": "average_pooling2d_48", "trainable": false, "dtype": "float32", "pool_size": [3, 3], "padding": "same", "strides": [1, 1], "data_format": "channels_last"}, "name": "average_pooling2d_48", "inbound_nodes": [[["mixed3", 0, 0, {}]]]}, {"class_name": "Conv2D", "config": {"name": "conv2d_500", "trainable": false, "dtype": "float32", "filters": 192, "kernel_size": [1, 1], "strides": [1, 1], "padding": "same", "data_format": "channels_last", "dilation_rate": [1, 1], "groups": 1, "activation": "linear", "use_bias": false, "kernel_initializer": {"class_name": "GlorotUniform", "config": {"seed": null}}, "bias_initializer": {"class_name": "Zeros", "config": {}}, "kernel_regularizer": null, "bias_regularizer": null, "activity_regularizer": null, "kernel_constraint": null, "bias_constraint": null}, "name": "conv2d_500", "inbound_nodes": [[["mixed3", 0, 0, {}]]]}, {"class_name": "Conv2D", "config": {"name": "conv2d_503", "trainable": false, "dtype": "float32", "filters": 192, "kernel_size": [7, 1], "strides": [1, 1], "padding": "same", "data_format": "channels_last", "dilation_rate": [1, 1], "groups": 1, "activation": "linear", "use_bias": false, "kernel_initializer": {"class_name": "GlorotUniform", "config": {"seed": null}}, "bias_initializer": {"class_name": "Zeros", "config": {}}, "kernel_regularizer": null, "bias_regularizer": null, "activity_regularizer": null, "kernel_constraint": null, "bias_constraint": null}, "name": "conv2d_503", "inbound_nodes": [[["activation_502", 0, 0, {}]]]}, {"class_name": "Conv2D", "config": {"name": "conv2d_508", "trainable": false, "dtype": "float32", "filters": 192, "kernel_size": [1, 7], "strides": [1, 1], "padding": "same", "data_format": "channels_last", "dilation_rate": [1, 1], "groups": 1, "activation": "linear", "use_bias": false, "kernel_initializer": {"class_name": "GlorotUniform", "config": {"seed": null}}, "bias_initializer": {"class_name": "Zeros", "config": {}}, "kernel_regularizer": null, "bias_regularizer": null, "activity_regularizer": null, "kernel_constraint": null, "bias_constraint": null}, "name": "conv2d_508", "inbound_nodes": [[["activation_507", 0, 0, {}]]]}, {"class_name": "Conv2D", "config": {"name": "conv2d_509", "trainable": false, "dtype": "float32", "filters": 192, "kernel_size": [1, 1], "strides": [1, 1], "padding": "same", "data_format": "channels_last", "dilation_rate": [1, 1], "groups": 1, "activation": "linear", "use_bias": false, "kernel_initializer": {"class_name": "GlorotUniform", "config": {"seed": null}}, "bias_initializer": {"class_name": "Zeros", "config": {}}, "kernel_regularizer": null, "bias_regularizer": null, "activity_regularizer": null, "kernel_constraint": null, "bias_constraint": null}, "name": "conv2d_509", "inbound_nodes": [[["average_pooling2d_48", 0, 0, {}]]]}, {"class_name": "BatchNormalization", "config": {"name": "batch_normalization_500", "trainable": false, "dtype": "float32", "axis": [3], "momentum": 0.99, "epsilon": 0.001, "center": true, "scale": false, "beta_initializer": {"class_name": "Zeros", "config": {}}, "gamma_initializer": {"class_name": "Ones", "config": {}}, "moving_mean_initializer": {"class_name": "Zeros", "config": {}}, "moving_variance_initializer": {"class_name": "Ones", "config": {}}, "beta_regularizer": null, "gamma_regularizer": null, "beta_constraint": null, "gamma_constraint": null}, "name": "batch_normalization_500", "inbound_nodes": [[["conv2d_500", 0, 0, {}]]]}, {"class_name": "BatchNormalization", "config": {"name": "batch_normalization_503", "trainable": false, "dtype": "float32", "axis": [3], "momentum": 0.99, "epsilon": 0.001, "center": true, "scale": false, "beta_initializer": {"class_name": "Zeros", "config": {}}, "gamma_initializer": {"class_name": "Ones", "config": {}}, "moving_mean_initializer": {"class_name": "Zeros", "config": {}}, "moving_variance_initializer": {"class_name": "Ones", "config": {}}, "beta_regularizer": null, "gamma_regularizer": null, "beta_constraint": null, "gamma_constraint": null}, "name": "batch_normalization_503", "inbound_nodes": [[["conv2d_503", 0, 0, {}]]]}, {"class_name": "BatchNormalization", "config": {"name": "batch_normalization_508", "trainable": false, "dtype": "float32", "axis": [3], "momentum": 0.99, "epsilon": 0.001, "center": true, "scale": false, "beta_initializer": {"class_name": "Zeros", "config": {}}, "gamma_initializer": {"class_name": "Ones", "config": {}}, "moving_mean_initializer": {"class_name": "Zeros", "config": {}}, "moving_variance_initializer": {"class_name": "Ones", "config": {}}, "beta_regularizer": null, "gamma_regularizer": null, "beta_constraint": null, "gamma_constraint": null}, "name": "batch_normalization_508", "inbound_nodes": [[["conv2d_508", 0, 0, {}]]]}, {"class_name": "BatchNormalization", "config": {"name": "batch_normalization_509", "trainable": false, "dtype": "float32", "axis": [3], "momentum": 0.99, "epsilon": 0.001, "center": true, "scale": false, "beta_initializer": {"class_name": "Zeros", "config": {}}, "gamma_initializer": {"class_name": "Ones", "config": {}}, "moving_mean_initializer": {"class_name": "Zeros", "config": {}}, "moving_variance_initializer": {"class_name": "Ones", "config": {}}, "beta_regularizer": null, "gamma_regularizer": null, "beta_constraint": null, "gamma_constraint": null}, "name": "batch_normalization_509", "inbound_nodes": [[["conv2d_509", 0, 0, {}]]]}, {"class_name": "Activation", "config": {"name": "activation_500", "trainable": false, "dtype": "float32", "activation": "relu"}, "name": "activation_500", "inbound_nodes": [[["batch_normalization_500", 0, 0, {}]]]}, {"class_name": "Activation", "config": {"name": "activation_503", "trainable": false, "dtype": "float32", "activation": "relu"}, "name": "activation_503", "inbound_nodes": [[["batch_normalization_503", 0, 0, {}]]]}, {"class_name": "Activation", "config": {"name": "activation_508", "trainable": false, "dtype": "float32", "activation": "relu"}, "name": "activation_508", "inbound_nodes": [[["batch_normalization_508", 0, 0, {}]]]}, {"class_name": "Activation", "config": {"name": "activation_509", "trainable": false, "dtype": "float32", "activation": "relu"}, "name": "activation_509", "inbound_nodes": [[["batch_normalization_509", 0, 0, {}]]]}, {"class_name": "Concatenate", "config": {"name": "mixed4", "trainable": false, "dtype": "float32", "axis": 3}, "name": "mixed4", "inbound_nodes": [[["activation_500", 0, 0, {}], ["activation_503", 0, 0, {}], ["activation_508", 0, 0, {}], ["activation_509", 0, 0, {}]]]}, {"class_name": "Conv2D", "config": {"name": "conv2d_514", "trainable": false, "dtype": "float32", "filters": 160, "kernel_size": [1, 1], "strides": [1, 1], "padding": "same", "data_format": "channels_last", "dilation_rate": [1, 1], "groups": 1, "activation": "linear", "use_bias": false, "kernel_initializer": {"class_name": "GlorotUniform", "config": {"seed": null}}, "bias_initializer": {"class_name": "Zeros", "config": {}}, "kernel_regularizer": null, "bias_regularizer": null, "activity_regularizer": null, "kernel_constraint": null, "bias_constraint": null}, "name": "conv2d_514", "inbound_nodes": [[["mixed4", 0, 0, {}]]]}, {"class_name": "BatchNormalization", "config": {"name": "batch_normalization_514", "trainable": false, "dtype": "float32", "axis": [3], "momentum": 0.99, "epsilon": 0.001, "center": true, "scale": false, "beta_initializer": {"class_name": "Zeros", "config": {}}, "gamma_initializer": {"class_name": "Ones", "config": {}}, "moving_mean_initializer": {"class_name": "Zeros", "config": {}}, "moving_variance_initializer": {"class_name": "Ones", "config": {}}, "beta_regularizer": null, "gamma_regularizer": null, "beta_constraint": null, "gamma_constraint": null}, "name": "batch_normalization_514", "inbound_nodes": [[["conv2d_514", 0, 0, {}]]]}, {"class_name": "Activation", "config": {"name": "activation_514", "trainable": false, "dtype": "float32", "activation": "relu"}, "name": "activation_514", "inbound_nodes": [[["batch_normalization_514", 0, 0, {}]]]}, {"class_name": "Conv2D", "config": {"name": "conv2d_515", "trainable": false, "dtype": "float32", "filters": 160, "kernel_size": [7, 1], "strides": [1, 1], "padding": "same", "data_format": "channels_last", "dilation_rate": [1, 1], "groups": 1, "activation": "linear", "use_bias": false, "kernel_initializer": {"class_name": "GlorotUniform", "config": {"seed": null}}, "bias_initializer": {"class_name": "Zeros", "config": {}}, "kernel_regularizer": null, "bias_regularizer": null, "activity_regularizer": null, "kernel_constraint": null, "bias_constraint": null}, "name": "conv2d_515", "inbound_nodes": [[["activation_514", 0, 0, {}]]]}, {"class_name": "BatchNormalization", "config": {"name": "batch_normalization_515", "trainable": false, "dtype": "float32", "axis": [3], "momentum": 0.99, "epsilon": 0.001, "center": true, "scale": false, "beta_initializer": {"class_name": "Zeros", "config": {}}, "gamma_initializer": {"class_name": "Ones", "config": {}}, "moving_mean_initializer": {"class_name": "Zeros", "config": {}}, "moving_variance_initializer": {"class_name": "Ones", "config": {}}, "beta_regularizer": null, "gamma_regularizer": null, "beta_constraint": null, "gamma_constraint": null}, "name": "batch_normalization_515", "inbound_nodes": [[["conv2d_515", 0, 0, {}]]]}, {"class_name": "Activation", "config": {"name": "activation_515", "trainable": false, "dtype": "float32", "activation": "relu"}, "name": "activation_515", "inbound_nodes": [[["batch_normalization_515", 0, 0, {}]]]}, {"class_name": "Conv2D", "config": {"name": "conv2d_511", "trainable": false, "dtype": "float32", "filters": 160, "kernel_size": [1, 1], "strides": [1, 1], "padding": "same", "data_format": "channels_last", "dilation_rate": [1, 1], "groups": 1, "activation": "linear", "use_bias": false, "kernel_initializer": {"class_name": "GlorotUniform", "config": {"seed": null}}, "bias_initializer": {"class_name": "Zeros", "config": {}}, "kernel_regularizer": null, "bias_regularizer": null, "activity_regularizer": null, "kernel_constraint": null, "bias_constraint": null}, "name": "conv2d_511", "inbound_nodes": [[["mixed4", 0, 0, {}]]]}, {"class_name": "Conv2D", "config": {"name": "conv2d_516", "trainable": false, "dtype": "float32", "filters": 160, "kernel_size": [1, 7], "strides": [1, 1], "padding": "same", "data_format": "channels_last", "dilation_rate": [1, 1], "groups": 1, "activation": "linear", "use_bias": false, "kernel_initializer": {"class_name": "GlorotUniform", "config": {"seed": null}}, "bias_initializer": {"class_name": "Zeros", "config": {}}, "kernel_regularizer": null, "bias_regularizer": null, "activity_regularizer": null, "kernel_constraint": null, "bias_constraint": null}, "name": "conv2d_516", "inbound_nodes": [[["activation_515", 0, 0, {}]]]}, {"class_name": "BatchNormalization", "config": {"name": "batch_normalization_511", "trainable": false, "dtype": "float32", "axis": [3], "momentum": 0.99, "epsilon": 0.001, "center": true, "scale": false, "beta_initializer": {"class_name": "Zeros", "config": {}}, "gamma_initializer": {"class_name": "Ones", "config": {}}, "moving_mean_initializer": {"class_name": "Zeros", "config": {}}, "moving_variance_initializer": {"class_name": "Ones", "config": {}}, "beta_regularizer": null, "gamma_regularizer": null, "beta_constraint": null, "gamma_constraint": null}, "name": "batch_normalization_511", "inbound_nodes": [[["conv2d_511", 0, 0, {}]]]}, {"class_name": "BatchNormalization", "config": {"name": "batch_normalization_516", "trainable": false, "dtype": "float32", "axis": [3], "momentum": 0.99, "epsilon": 0.001, "center": true, "scale": false, "beta_initializer": {"class_name": "Zeros", "config": {}}, "gamma_initializer": {"class_name": "Ones", "config": {}}, "moving_mean_initializer": {"class_name": "Zeros", "config": {}}, "moving_variance_initializer": {"class_name": "Ones", "config": {}}, "beta_regularizer": null, "gamma_regularizer": null, "beta_constraint": null, "gamma_constraint": null}, "name": "batch_normalization_516", "inbound_nodes": [[["conv2d_516", 0, 0, {}]]]}, {"class_name": "Activation", "config": {"name": "activation_511", "trainable": false, "dtype": "float32", "activation": "relu"}, "name": "activation_511", "inbound_nodes": [[["batch_normalization_511", 0, 0, {}]]]}, {"class_name": "Activation", "config": {"name": "activation_516", "trainable": false, "dtype": "float32", "activation": "relu"}, "name": "activation_516", "inbound_nodes": [[["batch_normalization_516", 0, 0, {}]]]}, {"class_name": "Conv2D", "config": {"name": "conv2d_512", "trainable": false, "dtype": "float32", "filters": 160, "kernel_size": [1, 7], "strides": [1, 1], "padding": "same", "data_format": "channels_last", "dilation_rate": [1, 1], "groups": 1, "activation": "linear", "use_bias": false, "kernel_initializer": {"class_name": "GlorotUniform", "config": {"seed": null}}, "bias_initializer": {"class_name": "Zeros", "config": {}}, "kernel_regularizer": null, "bias_regularizer": null, "activity_regularizer": null, "kernel_constraint": null, "bias_constraint": null}, "name": "conv2d_512", "inbound_nodes": [[["activation_511", 0, 0, {}]]]}, {"class_name": "Conv2D", "config": {"name": "conv2d_517", "trainable": false, "dtype": "float32", "filters": 160, "kernel_size": [7, 1], "strides": [1, 1], "padding": "same", "data_format": "channels_last", "dilation_rate": [1, 1], "groups": 1, "activation": "linear", "use_bias": false, "kernel_initializer": {"class_name": "GlorotUniform", "config": {"seed": null}}, "bias_initializer": {"class_name": "Zeros", "config": {}}, "kernel_regularizer": null, "bias_regularizer": null, "activity_regularizer": null, "kernel_constraint": null, "bias_constraint": null}, "name": "conv2d_517", "inbound_nodes": [[["activation_516", 0, 0, {}]]]}, {"class_name": "BatchNormalization", "config": {"name": "batch_normalization_512", "trainable": false, "dtype": "float32", "axis": [3], "momentum": 0.99, "epsilon": 0.001, "center": true, "scale": false, "beta_initializer": {"class_name": "Zeros", "config": {}}, "gamma_initializer": {"class_name": "Ones", "config": {}}, "moving_mean_initializer": {"class_name": "Zeros", "config": {}}, "moving_variance_initializer": {"class_name": "Ones", "config": {}}, "beta_regularizer": null, "gamma_regularizer": null, "beta_constraint": null, "gamma_constraint": null}, "name": "batch_normalization_512", "inbound_nodes": [[["conv2d_512", 0, 0, {}]]]}, {"class_name": "BatchNormalization", "config": {"name": "batch_normalization_517", "trainable": false, "dtype": "float32", "axis": [3], "momentum": 0.99, "epsilon": 0.001, "center": true, "scale": false, "beta_initializer": {"class_name": "Zeros", "config": {}}, "gamma_initializer": {"class_name": "Ones", "config": {}}, "moving_mean_initializer": {"class_name": "Zeros", "config": {}}, "moving_variance_initializer": {"class_name": "Ones", "config": {}}, "beta_regularizer": null, "gamma_regularizer": null, "beta_constraint": null, "gamma_constraint": null}, "name": "batch_normalization_517", "inbound_nodes": [[["conv2d_517", 0, 0, {}]]]}, {"class_name": "Activation", "config": {"name": "activation_512", "trainable": false, "dtype": "float32", "activation": "relu"}, "name": "activation_512", "inbound_nodes": [[["batch_normalization_512", 0, 0, {}]]]}, {"class_name": "Activation", "config": {"name": "activation_517", "trainable": false, "dtype": "float32", "activation": "relu"}, "name": "activation_517", "inbound_nodes": [[["batch_normalization_517", 0, 0, {}]]]}, {"class_name": "AveragePooling2D", "config": {"name": "average_pooling2d_49", "trainable": false, "dtype": "float32", "pool_size": [3, 3], "padding": "same", "strides": [1, 1], "data_format": "channels_last"}, "name": "average_pooling2d_49", "inbound_nodes": [[["mixed4", 0, 0, {}]]]}, {"class_name": "Conv2D", "config": {"name": "conv2d_510", "trainable": false, "dtype": "float32", "filters": 192, "kernel_size": [1, 1], "strides": [1, 1], "padding": "same", "data_format": "channels_last", "dilation_rate": [1, 1], "groups": 1, "activation": "linear", "use_bias": false, "kernel_initializer": {"class_name": "GlorotUniform", "config": {"seed": null}}, "bias_initializer": {"class_name": "Zeros", "config": {}}, "kernel_regularizer": null, "bias_regularizer": null, "activity_regularizer": null, "kernel_constraint": null, "bias_constraint": null}, "name": "conv2d_510", "inbound_nodes": [[["mixed4", 0, 0, {}]]]}, {"class_name": "Conv2D", "config": {"name": "conv2d_513", "trainable": false, "dtype": "float32", "filters": 192, "kernel_size": [7, 1], "strides": [1, 1], "padding": "same", "data_format": "channels_last", "dilation_rate": [1, 1], "groups": 1, "activation": "linear", "use_bias": false, "kernel_initializer": {"class_name": "GlorotUniform", "config": {"seed": null}}, "bias_initializer": {"class_name": "Zeros", "config": {}}, "kernel_regularizer": null, "bias_regularizer": null, "activity_regularizer": null, "kernel_constraint": null, "bias_constraint": null}, "name": "conv2d_513", "inbound_nodes": [[["activation_512", 0, 0, {}]]]}, {"class_name": "Conv2D", "config": {"name": "conv2d_518", "trainable": false, "dtype": "float32", "filters": 192, "kernel_size": [1, 7], "strides": [1, 1], "padding": "same", "data_format": "channels_last", "dilation_rate": [1, 1], "groups": 1, "activation": "linear", "use_bias": false, "kernel_initializer": {"class_name": "GlorotUniform", "config": {"seed": null}}, "bias_initializer": {"class_name": "Zeros", "config": {}}, "kernel_regularizer": null, "bias_regularizer": null, "activity_regularizer": null, "kernel_constraint": null, "bias_constraint": null}, "name": "conv2d_518", "inbound_nodes": [[["activation_517", 0, 0, {}]]]}, {"class_name": "Conv2D", "config": {"name": "conv2d_519", "trainable": false, "dtype": "float32", "filters": 192, "kernel_size": [1, 1], "strides": [1, 1], "padding": "same", "data_format": "channels_last", "dilation_rate": [1, 1], "groups": 1, "activation": "linear", "use_bias": false, "kernel_initializer": {"class_name": "GlorotUniform", "config": {"seed": null}}, "bias_initializer": {"class_name": "Zeros", "config": {}}, "kernel_regularizer": null, "bias_regularizer": null, "activity_regularizer": null, "kernel_constraint": null, "bias_constraint": null}, "name": "conv2d_519", "inbound_nodes": [[["average_pooling2d_49", 0, 0, {}]]]}, {"class_name": "BatchNormalization", "config": {"name": "batch_normalization_510", "trainable": false, "dtype": "float32", "axis": [3], "momentum": 0.99, "epsilon": 0.001, "center": true, "scale": false, "beta_initializer": {"class_name": "Zeros", "config": {}}, "gamma_initializer": {"class_name": "Ones", "config": {}}, "moving_mean_initializer": {"class_name": "Zeros", "config": {}}, "moving_variance_initializer": {"class_name": "Ones", "config": {}}, "beta_regularizer": null, "gamma_regularizer": null, "beta_constraint": null, "gamma_constraint": null}, "name": "batch_normalization_510", "inbound_nodes": [[["conv2d_510", 0, 0, {}]]]}, {"class_name": "BatchNormalization", "config": {"name": "batch_normalization_513", "trainable": false, "dtype": "float32", "axis": [3], "momentum": 0.99, "epsilon": 0.001, "center": true, "scale": false, "beta_initializer": {"class_name": "Zeros", "config": {}}, "gamma_initializer": {"class_name": "Ones", "config": {}}, "moving_mean_initializer": {"class_name": "Zeros", "config": {}}, "moving_variance_initializer": {"class_name": "Ones", "config": {}}, "beta_regularizer": null, "gamma_regularizer": null, "beta_constraint": null, "gamma_constraint": null}, "name": "batch_normalization_513", "inbound_nodes": [[["conv2d_513", 0, 0, {}]]]}, {"class_name": "BatchNormalization", "config": {"name": "batch_normalization_518", "trainable": false, "dtype": "float32", "axis": [3], "momentum": 0.99, "epsilon": 0.001, "center": true, "scale": false, "beta_initializer": {"class_name": "Zeros", "config": {}}, "gamma_initializer": {"class_name": "Ones", "config": {}}, "moving_mean_initializer": {"class_name": "Zeros", "config": {}}, "moving_variance_initializer": {"class_name": "Ones", "config": {}}, "beta_regularizer": null, "gamma_regularizer": null, "beta_constraint": null, "gamma_constraint": null}, "name": "batch_normalization_518", "inbound_nodes": [[["conv2d_518", 0, 0, {}]]]}, {"class_name": "BatchNormalization", "config": {"name": "batch_normalization_519", "trainable": false, "dtype": "float32", "axis": [3], "momentum": 0.99, "epsilon": 0.001, "center": true, "scale": false, "beta_initializer": {"class_name": "Zeros", "config": {}}, "gamma_initializer": {"class_name": "Ones", "config": {}}, "moving_mean_initializer": {"class_name": "Zeros", "config": {}}, "moving_variance_initializer": {"class_name": "Ones", "config": {}}, "beta_regularizer": null, "gamma_regularizer": null, "beta_constraint": null, "gamma_constraint": null}, "name": "batch_normalization_519", "inbound_nodes": [[["conv2d_519", 0, 0, {}]]]}, {"class_name": "Activation", "config": {"name": "activation_510", "trainable": false, "dtype": "float32", "activation": "relu"}, "name": "activation_510", "inbound_nodes": [[["batch_normalization_510", 0, 0, {}]]]}, {"class_name": "Activation", "config": {"name": "activation_513", "trainable": false, "dtype": "float32", "activation": "relu"}, "name": "activation_513", "inbound_nodes": [[["batch_normalization_513", 0, 0, {}]]]}, {"class_name": "Activation", "config": {"name": "activation_518", "trainable": false, "dtype": "float32", "activation": "relu"}, "name": "activation_518", "inbound_nodes": [[["batch_normalization_518", 0, 0, {}]]]}, {"class_name": "Activation", "config": {"name": "activation_519", "trainable": false, "dtype": "float32", "activation": "relu"}, "name": "activation_519", "inbound_nodes": [[["batch_normalization_519", 0, 0, {}]]]}, {"class_name": "Concatenate", "config": {"name": "mixed5", "trainable": false, "dtype": "float32", "axis": 3}, "name": "mixed5", "inbound_nodes": [[["activation_510", 0, 0, {}], ["activation_513", 0, 0, {}], ["activation_518", 0, 0, {}], ["activation_519", 0, 0, {}]]]}, {"class_name": "Conv2D", "config": {"name": "conv2d_524", "trainable": false, "dtype": "float32", "filters": 160, "kernel_size": [1, 1], "strides": [1, 1], "padding": "same", "data_format": "channels_last", "dilation_rate": [1, 1], "groups": 1, "activation": "linear", "use_bias": false, "kernel_initializer": {"class_name": "GlorotUniform", "config": {"seed": null}}, "bias_initializer": {"class_name": "Zeros", "config": {}}, "kernel_regularizer": null, "bias_regularizer": null, "activity_regularizer": null, "kernel_constraint": null, "bias_constraint": null}, "name": "conv2d_524", "inbound_nodes": [[["mixed5", 0, 0, {}]]]}, {"class_name": "BatchNormalization", "config": {"name": "batch_normalization_524", "trainable": false, "dtype": "float32", "axis": [3], "momentum": 0.99, "epsilon": 0.001, "center": true, "scale": false, "beta_initializer": {"class_name": "Zeros", "config": {}}, "gamma_initializer": {"class_name": "Ones", "config": {}}, "moving_mean_initializer": {"class_name": "Zeros", "config": {}}, "moving_variance_initializer": {"class_name": "Ones", "config": {}}, "beta_regularizer": null, "gamma_regularizer": null, "beta_constraint": null, "gamma_constraint": null}, "name": "batch_normalization_524", "inbound_nodes": [[["conv2d_524", 0, 0, {}]]]}, {"class_name": "Activation", "config": {"name": "activation_524", "trainable": false, "dtype": "float32", "activation": "relu"}, "name": "activation_524", "inbound_nodes": [[["batch_normalization_524", 0, 0, {}]]]}, {"class_name": "Conv2D", "config": {"name": "conv2d_525", "trainable": false, "dtype": "float32", "filters": 160, "kernel_size": [7, 1], "strides": [1, 1], "padding": "same", "data_format": "channels_last", "dilation_rate": [1, 1], "groups": 1, "activation": "linear", "use_bias": false, "kernel_initializer": {"class_name": "GlorotUniform", "config": {"seed": null}}, "bias_initializer": {"class_name": "Zeros", "config": {}}, "kernel_regularizer": null, "bias_regularizer": null, "activity_regularizer": null, "kernel_constraint": null, "bias_constraint": null}, "name": "conv2d_525", "inbound_nodes": [[["activation_524", 0, 0, {}]]]}, {"class_name": "BatchNormalization", "config": {"name": "batch_normalization_525", "trainable": false, "dtype": "float32", "axis": [3], "momentum": 0.99, "epsilon": 0.001, "center": true, "scale": false, "beta_initializer": {"class_name": "Zeros", "config": {}}, "gamma_initializer": {"class_name": "Ones", "config": {}}, "moving_mean_initializer": {"class_name": "Zeros", "config": {}}, "moving_variance_initializer": {"class_name": "Ones", "config": {}}, "beta_regularizer": null, "gamma_regularizer": null, "beta_constraint": null, "gamma_constraint": null}, "name": "batch_normalization_525", "inbound_nodes": [[["conv2d_525", 0, 0, {}]]]}, {"class_name": "Activation", "config": {"name": "activation_525", "trainable": false, "dtype": "float32", "activation": "relu"}, "name": "activation_525", "inbound_nodes": [[["batch_normalization_525", 0, 0, {}]]]}, {"class_name": "Conv2D", "config": {"name": "conv2d_521", "trainable": false, "dtype": "float32", "filters": 160, "kernel_size": [1, 1], "strides": [1, 1], "padding": "same", "data_format": "channels_last", "dilation_rate": [1, 1], "groups": 1, "activation": "linear", "use_bias": false, "kernel_initializer": {"class_name": "GlorotUniform", "config": {"seed": null}}, "bias_initializer": {"class_name": "Zeros", "config": {}}, "kernel_regularizer": null, "bias_regularizer": null, "activity_regularizer": null, "kernel_constraint": null, "bias_constraint": null}, "name": "conv2d_521", "inbound_nodes": [[["mixed5", 0, 0, {}]]]}, {"class_name": "Conv2D", "config": {"name": "conv2d_526", "trainable": false, "dtype": "float32", "filters": 160, "kernel_size": [1, 7], "strides": [1, 1], "padding": "same", "data_format": "channels_last", "dilation_rate": [1, 1], "groups": 1, "activation": "linear", "use_bias": false, "kernel_initializer": {"class_name": "GlorotUniform", "config": {"seed": null}}, "bias_initializer": {"class_name": "Zeros", "config": {}}, "kernel_regularizer": null, "bias_regularizer": null, "activity_regularizer": null, "kernel_constraint": null, "bias_constraint": null}, "name": "conv2d_526", "inbound_nodes": [[["activation_525", 0, 0, {}]]]}, {"class_name": "BatchNormalization", "config": {"name": "batch_normalization_521", "trainable": false, "dtype": "float32", "axis": [3], "momentum": 0.99, "epsilon": 0.001, "center": true, "scale": false, "beta_initializer": {"class_name": "Zeros", "config": {}}, "gamma_initializer": {"class_name": "Ones", "config": {}}, "moving_mean_initializer": {"class_name": "Zeros", "config": {}}, "moving_variance_initializer": {"class_name": "Ones", "config": {}}, "beta_regularizer": null, "gamma_regularizer": null, "beta_constraint": null, "gamma_constraint": null}, "name": "batch_normalization_521", "inbound_nodes": [[["conv2d_521", 0, 0, {}]]]}, {"class_name": "BatchNormalization", "config": {"name": "batch_normalization_526", "trainable": false, "dtype": "float32", "axis": [3], "momentum": 0.99, "epsilon": 0.001, "center": true, "scale": false, "beta_initializer": {"class_name": "Zeros", "config": {}}, "gamma_initializer": {"class_name": "Ones", "config": {}}, "moving_mean_initializer": {"class_name": "Zeros", "config": {}}, "moving_variance_initializer": {"class_name": "Ones", "config": {}}, "beta_regularizer": null, "gamma_regularizer": null, "beta_constraint": null, "gamma_constraint": null}, "name": "batch_normalization_526", "inbound_nodes": [[["conv2d_526", 0, 0, {}]]]}, {"class_name": "Activation", "config": {"name": "activation_521", "trainable": false, "dtype": "float32", "activation": "relu"}, "name": "activation_521", "inbound_nodes": [[["batch_normalization_521", 0, 0, {}]]]}, {"class_name": "Activation", "config": {"name": "activation_526", "trainable": false, "dtype": "float32", "activation": "relu"}, "name": "activation_526", "inbound_nodes": [[["batch_normalization_526", 0, 0, {}]]]}, {"class_name": "Conv2D", "config": {"name": "conv2d_522", "trainable": false, "dtype": "float32", "filters": 160, "kernel_size": [1, 7], "strides": [1, 1], "padding": "same", "data_format": "channels_last", "dilation_rate": [1, 1], "groups": 1, "activation": "linear", "use_bias": false, "kernel_initializer": {"class_name": "GlorotUniform", "config": {"seed": null}}, "bias_initializer": {"class_name": "Zeros", "config": {}}, "kernel_regularizer": null, "bias_regularizer": null, "activity_regularizer": null, "kernel_constraint": null, "bias_constraint": null}, "name": "conv2d_522", "inbound_nodes": [[["activation_521", 0, 0, {}]]]}, {"class_name": "Conv2D", "config": {"name": "conv2d_527", "trainable": false, "dtype": "float32", "filters": 160, "kernel_size": [7, 1], "strides": [1, 1], "padding": "same", "data_format": "channels_last", "dilation_rate": [1, 1], "groups": 1, "activation": "linear", "use_bias": false, "kernel_initializer": {"class_name": "GlorotUniform", "config": {"seed": null}}, "bias_initializer": {"class_name": "Zeros", "config": {}}, "kernel_regularizer": null, "bias_regularizer": null, "activity_regularizer": null, "kernel_constraint": null, "bias_constraint": null}, "name": "conv2d_527", "inbound_nodes": [[["activation_526", 0, 0, {}]]]}, {"class_name": "BatchNormalization", "config": {"name": "batch_normalization_522", "trainable": false, "dtype": "float32", "axis": [3], "momentum": 0.99, "epsilon": 0.001, "center": true, "scale": false, "beta_initializer": {"class_name": "Zeros", "config": {}}, "gamma_initializer": {"class_name": "Ones", "config": {}}, "moving_mean_initializer": {"class_name": "Zeros", "config": {}}, "moving_variance_initializer": {"class_name": "Ones", "config": {}}, "beta_regularizer": null, "gamma_regularizer": null, "beta_constraint": null, "gamma_constraint": null}, "name": "batch_normalization_522", "inbound_nodes": [[["conv2d_522", 0, 0, {}]]]}, {"class_name": "BatchNormalization", "config": {"name": "batch_normalization_527", "trainable": false, "dtype": "float32", "axis": [3], "momentum": 0.99, "epsilon": 0.001, "center": true, "scale": false, "beta_initializer": {"class_name": "Zeros", "config": {}}, "gamma_initializer": {"class_name": "Ones", "config": {}}, "moving_mean_initializer": {"class_name": "Zeros", "config": {}}, "moving_variance_initializer": {"class_name": "Ones", "config": {}}, "beta_regularizer": null, "gamma_regularizer": null, "beta_constraint": null, "gamma_constraint": null}, "name": "batch_normalization_527", "inbound_nodes": [[["conv2d_527", 0, 0, {}]]]}, {"class_name": "Activation", "config": {"name": "activation_522", "trainable": false, "dtype": "float32", "activation": "relu"}, "name": "activation_522", "inbound_nodes": [[["batch_normalization_522", 0, 0, {}]]]}, {"class_name": "Activation", "config": {"name": "activation_527", "trainable": false, "dtype": "float32", "activation": "relu"}, "name": "activation_527", "inbound_nodes": [[["batch_normalization_527", 0, 0, {}]]]}, {"class_name": "AveragePooling2D", "config": {"name": "average_pooling2d_50", "trainable": false, "dtype": "float32", "pool_size": [3, 3], "padding": "same", "strides": [1, 1], "data_format": "channels_last"}, "name": "average_pooling2d_50", "inbound_nodes": [[["mixed5", 0, 0, {}]]]}, {"class_name": "Conv2D", "config": {"name": "conv2d_520", "trainable": false, "dtype": "float32", "filters": 192, "kernel_size": [1, 1], "strides": [1, 1], "padding": "same", "data_format": "channels_last", "dilation_rate": [1, 1], "groups": 1, "activation": "linear", "use_bias": false, "kernel_initializer": {"class_name": "GlorotUniform", "config": {"seed": null}}, "bias_initializer": {"class_name": "Zeros", "config": {}}, "kernel_regularizer": null, "bias_regularizer": null, "activity_regularizer": null, "kernel_constraint": null, "bias_constraint": null}, "name": "conv2d_520", "inbound_nodes": [[["mixed5", 0, 0, {}]]]}, {"class_name": "Conv2D", "config": {"name": "conv2d_523", "trainable": false, "dtype": "float32", "filters": 192, "kernel_size": [7, 1], "strides": [1, 1], "padding": "same", "data_format": "channels_last", "dilation_rate": [1, 1], "groups": 1, "activation": "linear", "use_bias": false, "kernel_initializer": {"class_name": "GlorotUniform", "config": {"seed": null}}, "bias_initializer": {"class_name": "Zeros", "config": {}}, "kernel_regularizer": null, "bias_regularizer": null, "activity_regularizer": null, "kernel_constraint": null, "bias_constraint": null}, "name": "conv2d_523", "inbound_nodes": [[["activation_522", 0, 0, {}]]]}, {"class_name": "Conv2D", "config": {"name": "conv2d_528", "trainable": false, "dtype": "float32", "filters": 192, "kernel_size": [1, 7], "strides": [1, 1], "padding": "same", "data_format": "channels_last", "dilation_rate": [1, 1], "groups": 1, "activation": "linear", "use_bias": false, "kernel_initializer": {"class_name": "GlorotUniform", "config": {"seed": null}}, "bias_initializer": {"class_name": "Zeros", "config": {}}, "kernel_regularizer": null, "bias_regularizer": null, "activity_regularizer": null, "kernel_constraint": null, "bias_constraint": null}, "name": "conv2d_528", "inbound_nodes": [[["activation_527", 0, 0, {}]]]}, {"class_name": "Conv2D", "config": {"name": "conv2d_529", "trainable": false, "dtype": "float32", "filters": 192, "kernel_size": [1, 1], "strides": [1, 1], "padding": "same", "data_format": "channels_last", "dilation_rate": [1, 1], "groups": 1, "activation": "linear", "use_bias": false, "kernel_initializer": {"class_name": "GlorotUniform", "config": {"seed": null}}, "bias_initializer": {"class_name": "Zeros", "config": {}}, "kernel_regularizer": null, "bias_regularizer": null, "activity_regularizer": null, "kernel_constraint": null, "bias_constraint": null}, "name": "conv2d_529", "inbound_nodes": [[["average_pooling2d_50", 0, 0, {}]]]}, {"class_name": "BatchNormalization", "config": {"name": "batch_normalization_520", "trainable": false, "dtype": "float32", "axis": [3], "momentum": 0.99, "epsilon": 0.001, "center": true, "scale": false, "beta_initializer": {"class_name": "Zeros", "config": {}}, "gamma_initializer": {"class_name": "Ones", "config": {}}, "moving_mean_initializer": {"class_name": "Zeros", "config": {}}, "moving_variance_initializer": {"class_name": "Ones", "config": {}}, "beta_regularizer": null, "gamma_regularizer": null, "beta_constraint": null, "gamma_constraint": null}, "name": "batch_normalization_520", "inbound_nodes": [[["conv2d_520", 0, 0, {}]]]}, {"class_name": "BatchNormalization", "config": {"name": "batch_normalization_523", "trainable": false, "dtype": "float32", "axis": [3], "momentum": 0.99, "epsilon": 0.001, "center": true, "scale": false, "beta_initializer": {"class_name": "Zeros", "config": {}}, "gamma_initializer": {"class_name": "Ones", "config": {}}, "moving_mean_initializer": {"class_name": "Zeros", "config": {}}, "moving_variance_initializer": {"class_name": "Ones", "config": {}}, "beta_regularizer": null, "gamma_regularizer": null, "beta_constraint": null, "gamma_constraint": null}, "name": "batch_normalization_523", "inbound_nodes": [[["conv2d_523", 0, 0, {}]]]}, {"class_name": "BatchNormalization", "config": {"name": "batch_normalization_528", "trainable": false, "dtype": "float32", "axis": [3], "momentum": 0.99, "epsilon": 0.001, "center": true, "scale": false, "beta_initializer": {"class_name": "Zeros", "config": {}}, "gamma_initializer": {"class_name": "Ones", "config": {}}, "moving_mean_initializer": {"class_name": "Zeros", "config": {}}, "moving_variance_initializer": {"class_name": "Ones", "config": {}}, "beta_regularizer": null, "gamma_regularizer": null, "beta_constraint": null, "gamma_constraint": null}, "name": "batch_normalization_528", "inbound_nodes": [[["conv2d_528", 0, 0, {}]]]}, {"class_name": "BatchNormalization", "config": {"name": "batch_normalization_529", "trainable": false, "dtype": "float32", "axis": [3], "momentum": 0.99, "epsilon": 0.001, "center": true, "scale": false, "beta_initializer": {"class_name": "Zeros", "config": {}}, "gamma_initializer": {"class_name": "Ones", "config": {}}, "moving_mean_initializer": {"class_name": "Zeros", "config": {}}, "moving_variance_initializer": {"class_name": "Ones", "config": {}}, "beta_regularizer": null, "gamma_regularizer": null, "beta_constraint": null, "gamma_constraint": null}, "name": "batch_normalization_529", "inbound_nodes": [[["conv2d_529", 0, 0, {}]]]}, {"class_name": "Activation", "config": {"name": "activation_520", "trainable": false, "dtype": "float32", "activation": "relu"}, "name": "activation_520", "inbound_nodes": [[["batch_normalization_520", 0, 0, {}]]]}, {"class_name": "Activation", "config": {"name": "activation_523", "trainable": false, "dtype": "float32", "activation": "relu"}, "name": "activation_523", "inbound_nodes": [[["batch_normalization_523", 0, 0, {}]]]}, {"class_name": "Activation", "config": {"name": "activation_528", "trainable": false, "dtype": "float32", "activation": "relu"}, "name": "activation_528", "inbound_nodes": [[["batch_normalization_528", 0, 0, {}]]]}, {"class_name": "Activation", "config": {"name": "activation_529", "trainable": false, "dtype": "float32", "activation": "relu"}, "name": "activation_529", "inbound_nodes": [[["batch_normalization_529", 0, 0, {}]]]}, {"class_name": "Concatenate", "config": {"name": "mixed6", "trainable": false, "dtype": "float32", "axis": 3}, "name": "mixed6", "inbound_nodes": [[["activation_520", 0, 0, {}], ["activation_523", 0, 0, {}], ["activation_528", 0, 0, {}], ["activation_529", 0, 0, {}]]]}, {"class_name": "Conv2D", "config": {"name": "conv2d_534", "trainable": false, "dtype": "float32", "filters": 192, "kernel_size": [1, 1], "strides": [1, 1], "padding": "same", "data_format": "channels_last", "dilation_rate": [1, 1], "groups": 1, "activation": "linear", "use_bias": false, "kernel_initializer": {"class_name": "GlorotUniform", "config": {"seed": null}}, "bias_initializer": {"class_name": "Zeros", "config": {}}, "kernel_regularizer": null, "bias_regularizer": null, "activity_regularizer": null, "kernel_constraint": null, "bias_constraint": null}, "name": "conv2d_534", "inbound_nodes": [[["mixed6", 0, 0, {}]]]}, {"class_name": "BatchNormalization", "config": {"name": "batch_normalization_534", "trainable": false, "dtype": "float32", "axis": [3], "momentum": 0.99, "epsilon": 0.001, "center": true, "scale": false, "beta_initializer": {"class_name": "Zeros", "config": {}}, "gamma_initializer": {"class_name": "Ones", "config": {}}, "moving_mean_initializer": {"class_name": "Zeros", "config": {}}, "moving_variance_initializer": {"class_name": "Ones", "config": {}}, "beta_regularizer": null, "gamma_regularizer": null, "beta_constraint": null, "gamma_constraint": null}, "name": "batch_normalization_534", "inbound_nodes": [[["conv2d_534", 0, 0, {}]]]}, {"class_name": "Activation", "config": {"name": "activation_534", "trainable": false, "dtype": "float32", "activation": "relu"}, "name": "activation_534", "inbound_nodes": [[["batch_normalization_534", 0, 0, {}]]]}, {"class_name": "Conv2D", "config": {"name": "conv2d_535", "trainable": false, "dtype": "float32", "filters": 192, "kernel_size": [7, 1], "strides": [1, 1], "padding": "same", "data_format": "channels_last", "dilation_rate": [1, 1], "groups": 1, "activation": "linear", "use_bias": false, "kernel_initializer": {"class_name": "GlorotUniform", "config": {"seed": null}}, "bias_initializer": {"class_name": "Zeros", "config": {}}, "kernel_regularizer": null, "bias_regularizer": null, "activity_regularizer": null, "kernel_constraint": null, "bias_constraint": null}, "name": "conv2d_535", "inbound_nodes": [[["activation_534", 0, 0, {}]]]}, {"class_name": "BatchNormalization", "config": {"name": "batch_normalization_535", "trainable": false, "dtype": "float32", "axis": [3], "momentum": 0.99, "epsilon": 0.001, "center": true, "scale": false, "beta_initializer": {"class_name": "Zeros", "config": {}}, "gamma_initializer": {"class_name": "Ones", "config": {}}, "moving_mean_initializer": {"class_name": "Zeros", "config": {}}, "moving_variance_initializer": {"class_name": "Ones", "config": {}}, "beta_regularizer": null, "gamma_regularizer": null, "beta_constraint": null, "gamma_constraint": null}, "name": "batch_normalization_535", "inbound_nodes": [[["conv2d_535", 0, 0, {}]]]}, {"class_name": "Activation", "config": {"name": "activation_535", "trainable": false, "dtype": "float32", "activation": "relu"}, "name": "activation_535", "inbound_nodes": [[["batch_normalization_535", 0, 0, {}]]]}, {"class_name": "Conv2D", "config": {"name": "conv2d_531", "trainable": false, "dtype": "float32", "filters": 192, "kernel_size": [1, 1], "strides": [1, 1], "padding": "same", "data_format": "channels_last", "dilation_rate": [1, 1], "groups": 1, "activation": "linear", "use_bias": false, "kernel_initializer": {"class_name": "GlorotUniform", "config": {"seed": null}}, "bias_initializer": {"class_name": "Zeros", "config": {}}, "kernel_regularizer": null, "bias_regularizer": null, "activity_regularizer": null, "kernel_constraint": null, "bias_constraint": null}, "name": "conv2d_531", "inbound_nodes": [[["mixed6", 0, 0, {}]]]}, {"class_name": "Conv2D", "config": {"name": "conv2d_536", "trainable": false, "dtype": "float32", "filters": 192, "kernel_size": [1, 7], "strides": [1, 1], "padding": "same", "data_format": "channels_last", "dilation_rate": [1, 1], "groups": 1, "activation": "linear", "use_bias": false, "kernel_initializer": {"class_name": "GlorotUniform", "config": {"seed": null}}, "bias_initializer": {"class_name": "Zeros", "config": {}}, "kernel_regularizer": null, "bias_regularizer": null, "activity_regularizer": null, "kernel_constraint": null, "bias_constraint": null}, "name": "conv2d_536", "inbound_nodes": [[["activation_535", 0, 0, {}]]]}, {"class_name": "BatchNormalization", "config": {"name": "batch_normalization_531", "trainable": false, "dtype": "float32", "axis": [3], "momentum": 0.99, "epsilon": 0.001, "center": true, "scale": false, "beta_initializer": {"class_name": "Zeros", "config": {}}, "gamma_initializer": {"class_name": "Ones", "config": {}}, "moving_mean_initializer": {"class_name": "Zeros", "config": {}}, "moving_variance_initializer": {"class_name": "Ones", "config": {}}, "beta_regularizer": null, "gamma_regularizer": null, "beta_constraint": null, "gamma_constraint": null}, "name": "batch_normalization_531", "inbound_nodes": [[["conv2d_531", 0, 0, {}]]]}, {"class_name": "BatchNormalization", "config": {"name": "batch_normalization_536", "trainable": false, "dtype": "float32", "axis": [3], "momentum": 0.99, "epsilon": 0.001, "center": true, "scale": false, "beta_initializer": {"class_name": "Zeros", "config": {}}, "gamma_initializer": {"class_name": "Ones", "config": {}}, "moving_mean_initializer": {"class_name": "Zeros", "config": {}}, "moving_variance_initializer": {"class_name": "Ones", "config": {}}, "beta_regularizer": null, "gamma_regularizer": null, "beta_constraint": null, "gamma_constraint": null}, "name": "batch_normalization_536", "inbound_nodes": [[["conv2d_536", 0, 0, {}]]]}, {"class_name": "Activation", "config": {"name": "activation_531", "trainable": false, "dtype": "float32", "activation": "relu"}, "name": "activation_531", "inbound_nodes": [[["batch_normalization_531", 0, 0, {}]]]}, {"class_name": "Activation", "config": {"name": "activation_536", "trainable": false, "dtype": "float32", "activation": "relu"}, "name": "activation_536", "inbound_nodes": [[["batch_normalization_536", 0, 0, {}]]]}, {"class_name": "Conv2D", "config": {"name": "conv2d_532", "trainable": false, "dtype": "float32", "filters": 192, "kernel_size": [1, 7], "strides": [1, 1], "padding": "same", "data_format": "channels_last", "dilation_rate": [1, 1], "groups": 1, "activation": "linear", "use_bias": false, "kernel_initializer": {"class_name": "GlorotUniform", "config": {"seed": null}}, "bias_initializer": {"class_name": "Zeros", "config": {}}, "kernel_regularizer": null, "bias_regularizer": null, "activity_regularizer": null, "kernel_constraint": null, "bias_constraint": null}, "name": "conv2d_532", "inbound_nodes": [[["activation_531", 0, 0, {}]]]}, {"class_name": "Conv2D", "config": {"name": "conv2d_537", "trainable": false, "dtype": "float32", "filters": 192, "kernel_size": [7, 1], "strides": [1, 1], "padding": "same", "data_format": "channels_last", "dilation_rate": [1, 1], "groups": 1, "activation": "linear", "use_bias": false, "kernel_initializer": {"class_name": "GlorotUniform", "config": {"seed": null}}, "bias_initializer": {"class_name": "Zeros", "config": {}}, "kernel_regularizer": null, "bias_regularizer": null, "activity_regularizer": null, "kernel_constraint": null, "bias_constraint": null}, "name": "conv2d_537", "inbound_nodes": [[["activation_536", 0, 0, {}]]]}, {"class_name": "BatchNormalization", "config": {"name": "batch_normalization_532", "trainable": false, "dtype": "float32", "axis": [3], "momentum": 0.99, "epsilon": 0.001, "center": true, "scale": false, "beta_initializer": {"class_name": "Zeros", "config": {}}, "gamma_initializer": {"class_name": "Ones", "config": {}}, "moving_mean_initializer": {"class_name": "Zeros", "config": {}}, "moving_variance_initializer": {"class_name": "Ones", "config": {}}, "beta_regularizer": null, "gamma_regularizer": null, "beta_constraint": null, "gamma_constraint": null}, "name": "batch_normalization_532", "inbound_nodes": [[["conv2d_532", 0, 0, {}]]]}, {"class_name": "BatchNormalization", "config": {"name": "batch_normalization_537", "trainable": false, "dtype": "float32", "axis": [3], "momentum": 0.99, "epsilon": 0.001, "center": true, "scale": false, "beta_initializer": {"class_name": "Zeros", "config": {}}, "gamma_initializer": {"class_name": "Ones", "config": {}}, "moving_mean_initializer": {"class_name": "Zeros", "config": {}}, "moving_variance_initializer": {"class_name": "Ones", "config": {}}, "beta_regularizer": null, "gamma_regularizer": null, "beta_constraint": null, "gamma_constraint": null}, "name": "batch_normalization_537", "inbound_nodes": [[["conv2d_537", 0, 0, {}]]]}, {"class_name": "Activation", "config": {"name": "activation_532", "trainable": false, "dtype": "float32", "activation": "relu"}, "name": "activation_532", "inbound_nodes": [[["batch_normalization_532", 0, 0, {}]]]}, {"class_name": "Activation", "config": {"name": "activation_537", "trainable": false, "dtype": "float32", "activation": "relu"}, "name": "activation_537", "inbound_nodes": [[["batch_normalization_537", 0, 0, {}]]]}, {"class_name": "AveragePooling2D", "config": {"name": "average_pooling2d_51", "trainable": false, "dtype": "float32", "pool_size": [3, 3], "padding": "same", "strides": [1, 1], "data_format": "channels_last"}, "name": "average_pooling2d_51", "inbound_nodes": [[["mixed6", 0, 0, {}]]]}, {"class_name": "Conv2D", "config": {"name": "conv2d_530", "trainable": false, "dtype": "float32", "filters": 192, "kernel_size": [1, 1], "strides": [1, 1], "padding": "same", "data_format": "channels_last", "dilation_rate": [1, 1], "groups": 1, "activation": "linear", "use_bias": false, "kernel_initializer": {"class_name": "GlorotUniform", "config": {"seed": null}}, "bias_initializer": {"class_name": "Zeros", "config": {}}, "kernel_regularizer": null, "bias_regularizer": null, "activity_regularizer": null, "kernel_constraint": null, "bias_constraint": null}, "name": "conv2d_530", "inbound_nodes": [[["mixed6", 0, 0, {}]]]}, {"class_name": "Conv2D", "config": {"name": "conv2d_533", "trainable": false, "dtype": "float32", "filters": 192, "kernel_size": [7, 1], "strides": [1, 1], "padding": "same", "data_format": "channels_last", "dilation_rate": [1, 1], "groups": 1, "activation": "linear", "use_bias": false, "kernel_initializer": {"class_name": "GlorotUniform", "config": {"seed": null}}, "bias_initializer": {"class_name": "Zeros", "config": {}}, "kernel_regularizer": null, "bias_regularizer": null, "activity_regularizer": null, "kernel_constraint": null, "bias_constraint": null}, "name": "conv2d_533", "inbound_nodes": [[["activation_532", 0, 0, {}]]]}, {"class_name": "Conv2D", "config": {"name": "conv2d_538", "trainable": false, "dtype": "float32", "filters": 192, "kernel_size": [1, 7], "strides": [1, 1], "padding": "same", "data_format": "channels_last", "dilation_rate": [1, 1], "groups": 1, "activation": "linear", "use_bias": false, "kernel_initializer": {"class_name": "GlorotUniform", "config": {"seed": null}}, "bias_initializer": {"class_name": "Zeros", "config": {}}, "kernel_regularizer": null, "bias_regularizer": null, "activity_regularizer": null, "kernel_constraint": null, "bias_constraint": null}, "name": "conv2d_538", "inbound_nodes": [[["activation_537", 0, 0, {}]]]}, {"class_name": "Conv2D", "config": {"name": "conv2d_539", "trainable": false, "dtype": "float32", "filters": 192, "kernel_size": [1, 1], "strides": [1, 1], "padding": "same", "data_format": "channels_last", "dilation_rate": [1, 1], "groups": 1, "activation": "linear", "use_bias": false, "kernel_initializer": {"class_name": "GlorotUniform", "config": {"seed": null}}, "bias_initializer": {"class_name": "Zeros", "config": {}}, "kernel_regularizer": null, "bias_regularizer": null, "activity_regularizer": null, "kernel_constraint": null, "bias_constraint": null}, "name": "conv2d_539", "inbound_nodes": [[["average_pooling2d_51", 0, 0, {}]]]}, {"class_name": "BatchNormalization", "config": {"name": "batch_normalization_530", "trainable": false, "dtype": "float32", "axis": [3], "momentum": 0.99, "epsilon": 0.001, "center": true, "scale": false, "beta_initializer": {"class_name": "Zeros", "config": {}}, "gamma_initializer": {"class_name": "Ones", "config": {}}, "moving_mean_initializer": {"class_name": "Zeros", "config": {}}, "moving_variance_initializer": {"class_name": "Ones", "config": {}}, "beta_regularizer": null, "gamma_regularizer": null, "beta_constraint": null, "gamma_constraint": null}, "name": "batch_normalization_530", "inbound_nodes": [[["conv2d_530", 0, 0, {}]]]}, {"class_name": "BatchNormalization", "config": {"name": "batch_normalization_533", "trainable": false, "dtype": "float32", "axis": [3], "momentum": 0.99, "epsilon": 0.001, "center": true, "scale": false, "beta_initializer": {"class_name": "Zeros", "config": {}}, "gamma_initializer": {"class_name": "Ones", "config": {}}, "moving_mean_initializer": {"class_name": "Zeros", "config": {}}, "moving_variance_initializer": {"class_name": "Ones", "config": {}}, "beta_regularizer": null, "gamma_regularizer": null, "beta_constraint": null, "gamma_constraint": null}, "name": "batch_normalization_533", "inbound_nodes": [[["conv2d_533", 0, 0, {}]]]}, {"class_name": "BatchNormalization", "config": {"name": "batch_normalization_538", "trainable": false, "dtype": "float32", "axis": [3], "momentum": 0.99, "epsilon": 0.001, "center": true, "scale": false, "beta_initializer": {"class_name": "Zeros", "config": {}}, "gamma_initializer": {"class_name": "Ones", "config": {}}, "moving_mean_initializer": {"class_name": "Zeros", "config": {}}, "moving_variance_initializer": {"class_name": "Ones", "config": {}}, "beta_regularizer": null, "gamma_regularizer": null, "beta_constraint": null, "gamma_constraint": null}, "name": "batch_normalization_538", "inbound_nodes": [[["conv2d_538", 0, 0, {}]]]}, {"class_name": "BatchNormalization", "config": {"name": "batch_normalization_539", "trainable": false, "dtype": "float32", "axis": [3], "momentum": 0.99, "epsilon": 0.001, "center": true, "scale": false, "beta_initializer": {"class_name": "Zeros", "config": {}}, "gamma_initializer": {"class_name": "Ones", "config": {}}, "moving_mean_initializer": {"class_name": "Zeros", "config": {}}, "moving_variance_initializer": {"class_name": "Ones", "config": {}}, "beta_regularizer": null, "gamma_regularizer": null, "beta_constraint": null, "gamma_constraint": null}, "name": "batch_normalization_539", "inbound_nodes": [[["conv2d_539", 0, 0, {}]]]}, {"class_name": "Activation", "config": {"name": "activation_530", "trainable": false, "dtype": "float32", "activation": "relu"}, "name": "activation_530", "inbound_nodes": [[["batch_normalization_530", 0, 0, {}]]]}, {"class_name": "Activation", "config": {"name": "activation_533", "trainable": false, "dtype": "float32", "activation": "relu"}, "name": "activation_533", "inbound_nodes": [[["batch_normalization_533", 0, 0, {}]]]}, {"class_name": "Activation", "config": {"name": "activation_538", "trainable": false, "dtype": "float32", "activation": "relu"}, "name": "activation_538", "inbound_nodes": [[["batch_normalization_538", 0, 0, {}]]]}, {"class_name": "Activation", "config": {"name": "activation_539", "trainable": false, "dtype": "float32", "activation": "relu"}, "name": "activation_539", "inbound_nodes": [[["batch_normalization_539", 0, 0, {}]]]}, {"class_name": "Concatenate", "config": {"name": "mixed7", "trainable": false, "dtype": "float32", "axis": 3}, "name": "mixed7", "inbound_nodes": [[["activation_530", 0, 0, {}], ["activation_533", 0, 0, {}], ["activation_538", 0, 0, {}], ["activation_539", 0, 0, {}]]]}, {"class_name": "Flatten", "config": {"name": "flatten_5", "trainable": true, "dtype": "float32", "data_format": "channels_last"}, "name": "flatten_5", "inbound_nodes": [[["mixed7", 0, 0, {}]]]}, {"class_name": "Dense", "config": {"name": "dense_10", "trainable": true, "dtype": "float32", "units": 1024, "activation": "relu", "use_bias": true, "kernel_initializer": {"class_name": "GlorotUniform", "config": {"seed": null}}, "bias_initializer": {"class_name": "Zeros", "config": {}}, "kernel_regularizer": null, "bias_regularizer": null, "activity_regularizer": null, "kernel_constraint": null, "bias_constraint": null}, "name": "dense_10", "inbound_nodes": [[["flatten_5", 0, 0, {}]]]}, {"class_name": "Dropout", "config": {"name": "dropout_5", "trainable": true, "dtype": "float32", "rate": 0.2, "noise_shape": null, "seed": null}, "name": "dropout_5", "inbound_nodes": [[["dense_10", 0, 0, {}]]]}, {"class_name": "Dense", "config": {"name": "dense_11", "trainable": true, "dtype": "float32", "units": 2, "activation": "softmax", "use_bias": true, "kernel_initializer": {"class_name": "GlorotUniform", "config": {"seed": null}}, "bias_initializer": {"class_name": "Zeros", "config": {}}, "kernel_regularizer": null, "bias_regularizer": null, "activity_regularizer": null, "kernel_constraint": null, "bias_constraint": null}, "name": "dense_11", "inbound_nodes": [[["dropout_5", 0, 0, {}]]]}], "input_layers": [["input_6", 0, 0]], "output_layers": [["dense_11", 0, 0]]}}, "training_config": {"loss": "categorical_crossentropy", "metrics": [[{"class_name": "MeanMetricWrapper", "config": {"name": "acc", "dtype": "float32", "fn": "categorical_accuracy"}}]], "weighted_metrics": null, "loss_weights": null, "optimizer_config": {"class_name": "Custom>RMSprop", "config": {"name": "RMSprop", "weight_decay": null, "clipnorm": null, "global_clipnorm": null, "clipvalue": null, "use_ema": false, "ema_momentum": 0.99, "ema_overwrite_frequency": 100, "jit_compile": false, "is_legacy_optimizer": false, "learning_rate": 9.999999747378752e-05, "rho": 0.9, "momentum": 0.0, "epsilon": 1e-07, "centered": false}}}}, "weightsManifest": [{"paths": ["group1-shard1of46.bin", "group1-shard2of46.bin", "group1-shard3of46.bin", "group1-shard4of46.bin", "group1-shard5of46.bin", "group1-shard6of46.bin", "group1-shard7of46.bin", "group1-shard8of46.bin", "group1-shard9of46.bin", "group1-shard10of46.bin", "group1-shard11of46.bin", "group1-shard12of46.bin", "group1-shard13of46.bin", "group1-shard14of46.bin", "group1-shard15of46.bin", "group1-shard16of46.bin", "group1-shard17of46.bin", "group1-shard18of46.bin", "group1-shard19of46.bin", "group1-shard20of46.bin", "group1-shard21of46.bin", "group1-shard22of46.bin", "group1-shard23of46.bin", "group1-shard24of46.bin", "group1-shard25of46.bin", "group1-shard26of46.bin", "group1-shard27of46.bin", "group1-shard28of46.bin", "group1-shard29of46.bin", "group1-shard30of46.bin", "group1-shard31of46.bin", "group1-shard32of46.bin", "group1-shard33of46.bin", "group1-shard34of46.bin", "group1-shard35of46.bin", "group1-shard36of46.bin", "group1-shard37of46.bin", "group1-shard38of46.bin", "group1-shard39of46.bin", "group1-shard40of46.bin", "group1-shard41of46.bin", "group1-shard42of46.bin", "group1-shard43of46.bin", "group1-shard44of46.bin", "group1-shard45of46.bin", "group1-shard46of46.bin"], "weights": [{"name": "batch_normalization_470/beta", "shape": [32], "dtype": "float32"}, {"name": "batch_normalization_470/moving_mean", "shape": [32], "dtype": "float32"}, {"name": "batch_normalization_470/moving_variance", "shape": [32], "dtype": "float32"}, {"name": "batch_normalization_471/beta", "shape": [32], "dtype": "float32"}, {"name": "batch_normalization_471/moving_mean", "shape": [32], "dtype": "float32"}, {"name": "batch_normalization_471/moving_variance", "shape": [32], "dtype": "float32"}, {"name": "batch_normalization_472/beta", "shape": [64], "dtype": "float32"}, {"name": "batch_normalization_472/moving_mean", "shape": [64], "dtype": "float32"}, {"name": "batch_normalization_472/moving_variance", "shape": [64], "dtype": "float32"}, {"name": "batch_normalization_473/beta", "shape": [80], "dtype": "float32"}, {"name": "batch_normalization_473/moving_mean", "shape": [80], "dtype": "float32"}, {"name": "batch_normalization_473/moving_variance", "shape": [80], "dtype": "float32"}, {"name": "batch_normalization_474/beta", "shape": [192], "dtype": "float32"}, {"name": "batch_normalization_474/moving_mean", "shape": [192], "dtype": "float32"}, {"name": "batch_normalization_474/moving_variance", "shape": [192], "dtype": "float32"}, {"name": "batch_normalization_475/beta", "shape": [64], "dtype": "float32"}, {"name": "batch_normalization_475/moving_mean", "shape": [64], "dtype": "float32"}, {"name": "batch_normalization_475/moving_variance", "shape": [64], "dtype": "float32"}, {"name": "batch_normalization_476/beta", "shape": [48], "dtype": "float32"}, {"name": "batch_normalization_476/moving_mean", "shape": [48], "dtype": "float32"}, {"name": "batch_normalization_476/moving_variance", "shape": [48], "dtype": "float32"}, {"name": "batch_normalization_477/beta", "shape": [64], "dtype": "float32"}, {"name": "batch_normalization_477/moving_mean", "shape": [64], "dtype": "float32"}, {"name": "batch_normalization_477/moving_variance", "shape": [64], "dtype": "float32"}, {"name": "batch_normalization_478/beta", "shape": [64], "dtype": "float32"}, {"name": "batch_normalization_478/moving_mean", "shape": [64], "dtype": "float32"}, {"name": "batch_normalization_478/moving_variance", "shape": [64], "dtype": "float32"}, {"name": "batch_normalization_479/beta", "shape": [96], "dtype": "float32"}, {"name": "batch_normalization_479/moving_mean", "shape": [96], "dtype": "float32"}, {"name": "batch_normalization_479/moving_variance", "shape": [96], "dtype": "float32"}, {"name": "batch_normalization_480/beta", "shape": [96], "dtype": "float32"}, {"name": "batch_normalization_480/moving_mean", "shape": [96], "dtype": "float32"}, {"name": "batch_normalization_480/moving_variance", "shape": [96], "dtype": "float32"}, {"name": "batch_normalization_481/beta", "shape": [32], "dtype": "float32"}, {"name": "batch_normalization_481/moving_mean", "shape": [32], "dtype": "float32"}, {"name": "batch_normalization_481/moving_variance", "shape": [32], "dtype": "float32"}, {"name": "batch_normalization_482/beta", "shape": [64], "dtype": "float32"}, {"name": "batch_normalization_482/moving_mean", "shape": [64], "dtype": "float32"}, {"name": "batch_normalization_482/moving_variance", "shape": [64], "dtype": "float32"}, {"name": "batch_normalization_483/beta", "shape": [48], "dtype": "float32"}, {"name": "batch_normalization_483/moving_mean", "shape": [48], "dtype": "float32"}, {"name": "batch_normalization_483/moving_variance", "shape": [48], "dtype": "float32"}, {"name": "batch_normalization_484/beta", "shape": [64], "dtype": "float32"}, {"name": "batch_normalization_484/moving_mean", "shape": [64], "dtype": "float32"}, {"name": "batch_normalization_484/moving_variance", "shape": [64], "dtype": "float32"}, {"name": "batch_normalization_485/beta", "shape": [64], "dtype": "float32"}, {"name": "batch_normalization_485/moving_mean", "shape": [64], "dtype": "float32"}, {"name": "batch_normalization_485/moving_variance", "shape": [64], "dtype": "float32"}, {"name": "batch_normalization_486/beta", "shape": [96], "dtype": "float32"}, {"name": "batch_normalization_486/moving_mean", "shape": [96], "dtype": "float32"}, {"name": "batch_normalization_486/moving_variance", "shape": [96], "dtype": "float32"}, {"name": "batch_normalization_487/beta", "shape": [96], "dtype": "float32"}, {"name": "batch_normalization_487/moving_mean", "shape": [96], "dtype": "float32"}, {"name": "batch_normalization_487/moving_variance", "shape": [96], "dtype": "float32"}, {"name": "batch_normalization_488/beta", "shape": [64], "dtype": "float32"}, {"name": "batch_normalization_488/moving_mean", "shape": [64], "dtype": "float32"}, {"name": "batch_normalization_488/moving_variance", "shape": [64], "dtype": "float32"}, {"name": "batch_normalization_489/beta", "shape": [64], "dtype": "float32"}, {"name": "batch_normalization_489/moving_mean", "shape": [64], "dtype": "float32"}, {"name": "batch_normalization_489/moving_variance", "shape": [64], "dtype": "float32"}, {"name": "batch_normalization_490/beta", "shape": [48], "dtype": "float32"}, {"name": "batch_normalization_490/moving_mean", "shape": [48], "dtype": "float32"}, {"name": "batch_normalization_490/moving_variance", "shape": [48], "dtype": "float32"}, {"name": "batch_normalization_491/beta", "shape": [64], "dtype": "float32"}, {"name": "batch_normalization_491/moving_mean", "shape": [64], "dtype": "float32"}, {"name": "batch_normalization_491/moving_variance", "shape": [64], "dtype": "float32"}, {"name": "batch_normalization_492/beta", "shape": [64], "dtype": "float32"}, {"name": "batch_normalization_492/moving_mean", "shape": [64], "dtype": "float32"}, {"name": "batch_normalization_492/moving_variance", "shape": [64], "dtype": "float32"}, {"name": "batch_normalization_493/beta", "shape": [96], "dtype": "float32"}, {"name": "batch_normalization_493/moving_mean", "shape": [96], "dtype": "float32"}, {"name": "batch_normalization_493/moving_variance", "shape": [96], "dtype": "float32"}, {"name": "batch_normalization_494/beta", "shape": [96], "dtype": "float32"}, {"name": "batch_normalization_494/moving_mean", "shape": [96], "dtype": "float32"}, {"name": "batch_normalization_494/moving_variance", "shape": [96], "dtype": "float32"}, {"name": "batch_normalization_495/beta", "shape": [64], "dtype": "float32"}, {"name": "batch_normalization_495/moving_mean", "shape": [64], "dtype": "float32"}, {"name": "batch_normalization_495/moving_variance", "shape": [64], "dtype": "float32"}, {"name": "batch_normalization_496/beta", "shape": [384], "dtype": "float32"}, {"name": "batch_normalization_496/moving_mean", "shape": [384], "dtype": "float32"}, {"name": "batch_normalization_496/moving_variance", "shape": [384], "dtype": "float32"}, {"name": "batch_normalization_497/beta", "shape": [64], "dtype": "float32"}, {"name": "batch_normalization_497/moving_mean", "shape": [64], "dtype": "float32"}, {"name": "batch_normalization_497/moving_variance", "shape": [64], "dtype": "float32"}, {"name": "batch_normalization_498/beta", "shape": [96], "dtype": "float32"}, {"name": "batch_normalization_498/moving_mean", "shape": [96], "dtype": "float32"}, {"name": "batch_normalization_498/moving_variance", "shape": [96], "dtype": "float32"}, {"name": "batch_normalization_499/beta", "shape": [96], "dtype": "float32"}, {"name": "batch_normalization_499/moving_mean", "shape": [96], "dtype": "float32"}, {"name": "batch_normalization_499/moving_variance", "shape": [96], "dtype": "float32"}, {"name": "batch_normalization_500/beta", "shape": [192], "dtype": "float32"}, {"name": "batch_normalization_500/moving_mean", "shape": [192], "dtype": "float32"}, {"name": "batch_normalization_500/moving_variance", "shape": [192], "dtype": "float32"}, {"name": "batch_normalization_501/beta", "shape": [128], "dtype": "float32"}, {"name": "batch_normalization_501/moving_mean", "shape": [128], "dtype": "float32"}, {"name": "batch_normalization_501/moving_variance", "shape": [128], "dtype": "float32"}, {"name": "batch_normalization_502/beta", "shape": [128], "dtype": "float32"}, {"name": "batch_normalization_502/moving_mean", "shape": [128], "dtype": "float32"}, {"name": "batch_normalization_502/moving_variance", "shape": [128], "dtype": "float32"}, {"name": "batch_normalization_503/beta", "shape": [192], "dtype": "float32"}, {"name": "batch_normalization_503/moving_mean", "shape": [192], "dtype": "float32"}, {"name": "batch_normalization_503/moving_variance", "shape": [192], "dtype": "float32"}, {"name": "batch_normalization_504/beta", "shape": [128], "dtype": "float32"}, {"name": "batch_normalization_504/moving_mean", "shape": [128], "dtype": "float32"}, {"name": "batch_normalization_504/moving_variance", "shape": [128], "dtype": "float32"}, {"name": "batch_normalization_505/beta", "shape": [128], "dtype": "float32"}, {"name": "batch_normalization_505/moving_mean", "shape": [128], "dtype": "float32"}, {"name": "batch_normalization_505/moving_variance", "shape": [128], "dtype": "float32"}, {"name": "batch_normalization_506/beta", "shape": [128], "dtype": "float32"}, {"name": "batch_normalization_506/moving_mean", "shape": [128], "dtype": "float32"}, {"name": "batch_normalization_506/moving_variance", "shape": [128], "dtype": "float32"}, {"name": "batch_normalization_507/beta", "shape": [128], "dtype": "float32"}, {"name": "batch_normalization_507/moving_mean", "shape": [128], "dtype": "float32"}, {"name": "batch_normalization_507/moving_variance", "shape": [128], "dtype": "float32"}, {"name": "batch_normalization_508/beta", "shape": [192], "dtype": "float32"}, {"name": "batch_normalization_508/moving_mean", "shape": [192], "dtype": "float32"}, {"name": "batch_normalization_508/moving_variance", "shape": [192], "dtype": "float32"}, {"name": "batch_normalization_509/beta", "shape": [192], "dtype": "float32"}, {"name": "batch_normalization_509/moving_mean", "shape": [192], "dtype": "float32"}, {"name": "batch_normalization_509/moving_variance", "shape": [192], "dtype": "float32"}, {"name": "batch_normalization_510/beta", "shape": [192], "dtype": "float32"}, {"name": "batch_normalization_510/moving_mean", "shape": [192], "dtype": "float32"}, {"name": "batch_normalization_510/moving_variance", "shape": [192], "dtype": "float32"}, {"name": "batch_normalization_511/beta", "shape": [160], "dtype": "float32"}, {"name": "batch_normalization_511/moving_mean", "shape": [160], "dtype": "float32"}, {"name": "batch_normalization_511/moving_variance", "shape": [160], "dtype": "float32"}, {"name": "batch_normalization_512/beta", "shape": [160], "dtype": "float32"}, {"name": "batch_normalization_512/moving_mean", "shape": [160], "dtype": "float32"}, {"name": "batch_normalization_512/moving_variance", "shape": [160], "dtype": "float32"}, {"name": "batch_normalization_513/beta", "shape": [192], "dtype": "float32"}, {"name": "batch_normalization_513/moving_mean", "shape": [192], "dtype": "float32"}, {"name": "batch_normalization_513/moving_variance", "shape": [192], "dtype": "float32"}, {"name": "batch_normalization_514/beta", "shape": [160], "dtype": "float32"}, {"name": "batch_normalization_514/moving_mean", "shape": [160], "dtype": "float32"}, {"name": "batch_normalization_514/moving_variance", "shape": [160], "dtype": "float32"}, {"name": "batch_normalization_515/beta", "shape": [160], "dtype": "float32"}, {"name": "batch_normalization_515/moving_mean", "shape": [160], "dtype": "float32"}, {"name": "batch_normalization_515/moving_variance", "shape": [160], "dtype": "float32"}, {"name": "batch_normalization_516/beta", "shape": [160], "dtype": "float32"}, {"name": "batch_normalization_516/moving_mean", "shape": [160], "dtype": "float32"}, {"name": "batch_normalization_516/moving_variance", "shape": [160], "dtype": "float32"}, {"name": "batch_normalization_517/beta", "shape": [160], "dtype": "float32"}, {"name": "batch_normalization_517/moving_mean", "shape": [160], "dtype": "float32"}, {"name": "batch_normalization_517/moving_variance", "shape": [160], "dtype": "float32"}, {"name": "batch_normalization_518/beta", "shape": [192], "dtype": "float32"}, {"name": "batch_normalization_518/moving_mean", "shape": [192], "dtype": "float32"}, {"name": "batch_normalization_518/moving_variance", "shape": [192], "dtype": "float32"}, {"name": "batch_normalization_519/beta", "shape": [192], "dtype": "float32"}, {"name": "batch_normalization_519/moving_mean", "shape": [192], "dtype": "float32"}, {"name": "batch_normalization_519/moving_variance", "shape": [192], "dtype": "float32"}, {"name": "batch_normalization_520/beta", "shape": [192], "dtype": "float32"}, {"name": "batch_normalization_520/moving_mean", "shape": [192], "dtype": "float32"}, {"name": "batch_normalization_520/moving_variance", "shape": [192], "dtype": "float32"}, {"name": "batch_normalization_521/beta", "shape": [160], "dtype": "float32"}, {"name": "batch_normalization_521/moving_mean", "shape": [160], "dtype": "float32"}, {"name": "batch_normalization_521/moving_variance", "shape": [160], "dtype": "float32"}, {"name": "batch_normalization_522/beta", "shape": [160], "dtype": "float32"}, {"name": "batch_normalization_522/moving_mean", "shape": [160], "dtype": "float32"}, {"name": "batch_normalization_522/moving_variance", "shape": [160], "dtype": "float32"}, {"name": "batch_normalization_523/beta", "shape": [192], "dtype": "float32"}, {"name": "batch_normalization_523/moving_mean", "shape": [192], "dtype": "float32"}, {"name": "batch_normalization_523/moving_variance", "shape": [192], "dtype": "float32"}, {"name": "batch_normalization_524/beta", "shape": [160], "dtype": "float32"}, {"name": "batch_normalization_524/moving_mean", "shape": [160], "dtype": "float32"}, {"name": "batch_normalization_524/moving_variance", "shape": [160], "dtype": "float32"}, {"name": "batch_normalization_525/beta", "shape": [160], "dtype": "float32"}, {"name": "batch_normalization_525/moving_mean", "shape": [160], "dtype": "float32"}, {"name": "batch_normalization_525/moving_variance", "shape": [160], "dtype": "float32"}, {"name": "batch_normalization_526/beta", "shape": [160], "dtype": "float32"}, {"name": "batch_normalization_526/moving_mean", "shape": [160], "dtype": "float32"}, {"name": "batch_normalization_526/moving_variance", "shape": [160], "dtype": "float32"}, {"name": "batch_normalization_527/beta", "shape": [160], "dtype": "float32"}, {"name": "batch_normalization_527/moving_mean", "shape": [160], "dtype": "float32"}, {"name": "batch_normalization_527/moving_variance", "shape": [160], "dtype": "float32"}, {"name": "batch_normalization_528/beta", "shape": [192], "dtype": "float32"}, {"name": "batch_normalization_528/moving_mean", "shape": [192], "dtype": "float32"}, {"name": "batch_normalization_528/moving_variance", "shape": [192], "dtype": "float32"}, {"name": "batch_normalization_529/beta", "shape": [192], "dtype": "float32"}, {"name": "batch_normalization_529/moving_mean", "shape": [192], "dtype": "float32"}, {"name": "batch_normalization_529/moving_variance", "shape": [192], "dtype": "float32"}, {"name": "batch_normalization_530/beta", "shape": [192], "dtype": "float32"}, {"name": "batch_normalization_530/moving_mean", "shape": [192], "dtype": "float32"}, {"name": "batch_normalization_530/moving_variance", "shape": [192], "dtype": "float32"}, {"name": "batch_normalization_531/beta", "shape": [192], "dtype": "float32"}, {"name": "batch_normalization_531/moving_mean", "shape": [192], "dtype": "float32"}, {"name": "batch_normalization_531/moving_variance", "shape": [192], "dtype": "float32"}, {"name": "batch_normalization_532/beta", "shape": [192], "dtype": "float32"}, {"name": "batch_normalization_532/moving_mean", "shape": [192], "dtype": "float32"}, {"name": "batch_normalization_532/moving_variance", "shape": [192], "dtype": "float32"}, {"name": "batch_normalization_533/beta", "shape": [192], "dtype": "float32"}, {"name": "batch_normalization_533/moving_mean", "shape": [192], "dtype": "float32"}, {"name": "batch_normalization_533/moving_variance", "shape": [192], "dtype": "float32"}, {"name": "batch_normalization_534/beta", "shape": [192], "dtype": "float32"}, {"name": "batch_normalization_534/moving_mean", "shape": [192], "dtype": "float32"}, {"name": "batch_normalization_534/moving_variance", "shape": [192], "dtype": "float32"}, {"name": "batch_normalization_535/beta", "shape": [192], "dtype": "float32"}, {"name": "batch_normalization_535/moving_mean", "shape": [192], "dtype": "float32"}, {"name": "batch_normalization_535/moving_variance", "shape": [192], "dtype": "float32"}, {"name": "batch_normalization_536/beta", "shape": [192], "dtype": "float32"}, {"name": "batch_normalization_536/moving_mean", "shape": [192], "dtype": "float32"}, {"name": "batch_normalization_536/moving_variance", "shape": [192], "dtype": "float32"}, {"name": "batch_normalization_537/beta", "shape": [192], "dtype": "float32"}, {"name": "batch_normalization_537/moving_mean", "shape": [192], "dtype": "float32"}, {"name": "batch_normalization_537/moving_variance", "shape": [192], "dtype": "float32"}, {"name": "batch_normalization_538/beta", "shape": [192], "dtype": "float32"}, {"name": "batch_normalization_538/moving_mean", "shape": [192], "dtype": "float32"}, {"name": "batch_normalization_538/moving_variance", "shape": [192], "dtype": "float32"}, {"name": "batch_normalization_539/beta", "shape": [192], "dtype": "float32"}, {"name": "batch_normalization_539/moving_mean", "shape": [192], "dtype": "float32"}, {"name": "batch_normalization_539/moving_variance", "shape": [192], "dtype": "float32"}, {"name": "conv2d_470/kernel", "shape": [3, 3, 3, 32], "dtype": "float32"}, {"name": "conv2d_471/kernel", "shape": [3, 3, 32, 32], "dtype": "float32"}, {"name": "conv2d_472/kernel", "shape": [3, 3, 32, 64], "dtype": "float32"}, {"name": "conv2d_473/kernel", "shape": [1, 1, 64, 80], "dtype": "float32"}, {"name": "conv2d_474/kernel", "shape": [3, 3, 80, 192], "dtype": "float32"}, {"name": "conv2d_475/kernel", "shape": [1, 1, 192, 64], "dtype": "float32"}, {"name": "conv2d_476/kernel", "shape": [1, 1, 192, 48], "dtype": "float32"}, {"name": "conv2d_477/kernel", "shape": [5, 5, 48, 64], "dtype": "float32"}, {"name": "conv2d_478/kernel", "shape": [1, 1, 192, 64], "dtype": "float32"}, {"name": "conv2d_479/kernel", "shape": [3, 3, 64, 96], "dtype": "float32"}, {"name": "conv2d_480/kernel", "shape": [3, 3, 96, 96], "dtype": "float32"}, {"name": "conv2d_481/kernel", "shape": [1, 1, 192, 32], "dtype": "float32"}, {"name": "conv2d_482/kernel", "shape": [1, 1, 256, 64], "dtype": "float32"}, {"name": "conv2d_483/kernel", "shape": [1, 1, 256, 48], "dtype": "float32"}, {"name": "conv2d_484/kernel", "shape": [5, 5, 48, 64], "dtype": "float32"}, {"name": "conv2d_485/kernel", "shape": [1, 1, 256, 64], "dtype": "float32"}, {"name": "conv2d_486/kernel", "shape": [3, 3, 64, 96], "dtype": "float32"}, {"name": "conv2d_487/kernel", "shape": [3, 3, 96, 96], "dtype": "float32"}, {"name": "conv2d_488/kernel", "shape": [1, 1, 256, 64], "dtype": "float32"}, {"name": "conv2d_489/kernel", "shape": [1, 1, 288, 64], "dtype": "float32"}, {"name": "conv2d_490/kernel", "shape": [1, 1, 288, 48], "dtype": "float32"}, {"name": "conv2d_491/kernel", "shape": [5, 5, 48, 64], "dtype": "float32"}, {"name": "conv2d_492/kernel", "shape": [1, 1, 288, 64], "dtype": "float32"}, {"name": "conv2d_493/kernel", "shape": [3, 3, 64, 96], "dtype": "float32"}, {"name": "conv2d_494/kernel", "shape": [3, 3, 96, 96], "dtype": "float32"}, {"name": "conv2d_495/kernel", "shape": [1, 1, 288, 64], "dtype": "float32"}, {"name": "conv2d_496/kernel", "shape": [3, 3, 288, 384], "dtype": "float32"}, {"name": "conv2d_497/kernel", "shape": [1, 1, 288, 64], "dtype": "float32"}, {"name": "conv2d_498/kernel", "shape": [3, 3, 64, 96], "dtype": "float32"}, {"name": "conv2d_499/kernel", "shape": [3, 3, 96, 96], "dtype": "float32"}, {"name": "conv2d_500/kernel", "shape": [1, 1, 768, 192], "dtype": "float32"}, {"name": "conv2d_501/kernel", "shape": [1, 1, 768, 128], "dtype": "float32"}, {"name": "conv2d_502/kernel", "shape": [1, 7, 128, 128], "dtype": "float32"}, {"name": "conv2d_503/kernel", "shape": [7, 1, 128, 192], "dtype": "float32"}, {"name": "conv2d_504/kernel", "shape": [1, 1, 768, 128], "dtype": "float32"}, {"name": "conv2d_505/kernel", "shape": [7, 1, 128, 128], "dtype": "float32"}, {"name": "conv2d_506/kernel", "shape": [1, 7, 128, 128], "dtype": "float32"}, {"name": "conv2d_507/kernel", "shape": [7, 1, 128, 128], "dtype": "float32"}, {"name": "conv2d_508/kernel", "shape": [1, 7, 128, 192], "dtype": "float32"}, {"name": "conv2d_509/kernel", "shape": [1, 1, 768, 192], "dtype": "float32"}, {"name": "conv2d_510/kernel", "shape": [1, 1, 768, 192], "dtype": "float32"}, {"name": "conv2d_511/kernel", "shape": [1, 1, 768, 160], "dtype": "float32"}, {"name": "conv2d_512/kernel", "shape": [1, 7, 160, 160], "dtype": "float32"}, {"name": "conv2d_513/kernel", "shape": [7, 1, 160, 192], "dtype": "float32"}, {"name": "conv2d_514/kernel", "shape": [1, 1, 768, 160], "dtype": "float32"}, {"name": "conv2d_515/kernel", "shape": [7, 1, 160, 160], "dtype": "float32"}, {"name": "conv2d_516/kernel", "shape": [1, 7, 160, 160], "dtype": "float32"}, {"name": "conv2d_517/kernel", "shape": [7, 1, 160, 160], "dtype": "float32"}, {"name": "conv2d_518/kernel", "shape": [1, 7, 160, 192], "dtype": "float32"}, {"name": "conv2d_519/kernel", "shape": [1, 1, 768, 192], "dtype": "float32"}, {"name": "conv2d_520/kernel", "shape": [1, 1, 768, 192], "dtype": "float32"}, {"name": "conv2d_521/kernel", "shape": [1, 1, 768, 160], "dtype": "float32"}, {"name": "conv2d_522/kernel", "shape": [1, 7, 160, 160], "dtype": "float32"}, {"name": "conv2d_523/kernel", "shape": [7, 1, 160, 192], "dtype": "float32"}, {"name": "conv2d_524/kernel", "shape": [1, 1, 768, 160], "dtype": "float32"}, {"name": "conv2d_525/kernel", "shape": [7, 1, 160, 160], "dtype": "float32"}, {"name": "conv2d_526/kernel", "shape": [1, 7, 160, 160], "dtype": "float32"}, {"name": "conv2d_527/kernel", "shape": [7, 1, 160, 160], "dtype": "float32"}, {"name": "conv2d_528/kernel", "shape": [1, 7, 160, 192], "dtype": "float32"}, {"name": "conv2d_529/kernel", "shape": [1, 1, 768, 192], "dtype": "float32"}, {"name": "conv2d_530/kernel", "shape": [1, 1, 768, 192], "dtype": "float32"}, {"name": "conv2d_531/kernel", "shape": [1, 1, 768, 192], "dtype": "float32"}, {"name": "conv2d_532/kernel", "shape": [1, 7, 192, 192], "dtype": "float32"}, {"name": "conv2d_533/kernel", "shape": [7, 1, 192, 192], "dtype": "float32"}, {"name": "conv2d_534/kernel", "shape": [1, 1, 768, 192], "dtype": "float32"}, {"name": "conv2d_535/kernel", "shape": [7, 1, 192, 192], "dtype": "float32"}, {"name": "conv2d_536/kernel", "shape": [1, 7, 192, 192], "dtype": "float32"}, {"name": "conv2d_537/kernel", "shape": [7, 1, 192, 192], "dtype": "float32"}, {"name": "conv2d_538/kernel", "shape": [1, 7, 192, 192], "dtype": "float32"}, {"name": "conv2d_539/kernel", "shape": [1, 1, 768, 192], "dtype": "float32"}, {"name": "dense_10/kernel", "shape": [37632, 1024], "dtype": "float32"}, {"name": "dense_10/bias", "shape": [1024], "dtype": "float32"}, {"name": "dense_11/kernel", "shape": [1024, 2], "dtype": "float32"}, {"name": "dense_11/bias", "shape": [2], "dtype": "float32"}]}]}